…
Current working directory: /storage/ssd1/ArthurLee/Mediatek_research/hourglass-proj/code/hourglass
Current working directory: /storage/ssd1/ArthurLee/Mediatek_research/hourglass-proj/code/hourglass
Current working directory: /storage/ssd1/ArthurLee/Mediatek_research/hourglass-proj/code/hourglass
Current working directory: /storage/ssd1/ArthurLee/Mediatek_research/hourglass-proj/code/hourglass
Current working directory: /storage/ssd1/ArthurLee/Mediatek_research/hourglass-proj/code/hourglass
cuda:6
Set W_in to non-trianable
cuda:6
cuda:6
cuda:6
Set W_in to non-trianable
Set W_in to non-trianable
Set W_in to non-trianable
cuda:6
Set W_in to non-trianable
HourGlassMLP(
  (in_fc): Linear(in_features=3072, out_features=3546, bias=False)
  (blocks): ModuleList(
    (0-4): 5 x MLPBlockReLU(
      (norm): BatchNorm1d(3546, eps=1e-05, momentum=0.1, affine=False, track_running_stats=True)
      (fc1): Linear(in_features=3546, out_features=270, bias=False)
      (act): ReLU()
      (fc2): Linear(in_features=270, out_features=3546, bias=False)
      (skip_add): SkipAdd()
    )
  )
  (out_fc): Linear(in_features=3546, out_features=3072, bias=False)
)
Total parameters: 31,360,824
Trainable parameters: 20,467,512
Training with W_in matrix!
Experiment directory: ./results/imagenet32_denoising_std0.25/bs512_ep4_aug4/hourglass_w_Win_fix_20467512/latent3546_hidden270_270_270_270_270/lr0.0003_run12
Loading ImageNet-32 training data...
  Loading batch 1...
HourGlassMLP(
  (in_fc): Linear(in_features=3072, out_features=3546, bias=False)
  (blocks): ModuleList(
    (0-4): 5 x MLPBlockReLU(
      (norm): BatchNorm1d(3546, eps=1e-05, momentum=0.1, affine=False, track_running_stats=True)
      (fc1): Linear(in_features=3546, out_features=270, bias=False)
      (act): ReLU()
      (fc2): Linear(in_features=270, out_features=3546, bias=False)
      (skip_add): SkipAdd()
    )
  )
  (out_fc): Linear(in_features=3546, out_features=3072, bias=False)
)
Total parameters: 31,360,824
Trainable parameters: 20,467,512
Training with W_in matrix!
Experiment directory: ./results/imagenet32_denoising_std0.25/bs512_ep4_aug4/hourglass_w_Win_fix_20467512/latent3546_hidden270_270_270_270_270/lr0.0003_run14
Loading ImageNet-32 training data...
  Loading batch 1...
HourGlassMLP(
  (in_fc): Linear(in_features=3072, out_features=3546, bias=False)
  (blocks): ModuleList(
    (0-4): 5 x MLPBlockReLU(
      (norm): BatchNorm1d(3546, eps=1e-05, momentum=0.1, affine=False, track_running_stats=True)
      (fc1): Linear(in_features=3546, out_features=270, bias=False)
      (act): ReLU()
      (fc2): Linear(in_features=270, out_features=3546, bias=False)
      (skip_add): SkipAdd()
    )
  )
  (out_fc): Linear(in_features=3546, out_features=3072, bias=False)
)
Total parameters: 31,360,824
Trainable parameters: 20,467,512
Training with W_in matrix!
Experiment directory: ./results/imagenet32_denoising_std0.25/bs512_ep4_aug4/hourglass_w_Win_fix_20467512/latent3546_hidden270_270_270_270_270/lr0.0003_run11
Loading ImageNet-32 training data...
  Loading batch 1...
HourGlassMLP(
  (in_fc): Linear(in_features=3072, out_features=3546, bias=False)
  (blocks): ModuleList(
    (0-4): 5 x MLPBlockReLU(
      (norm): BatchNorm1d(3546, eps=1e-05, momentum=0.1, affine=False, track_running_stats=True)
      (fc1): Linear(in_features=3546, out_features=270, bias=False)
      (act): ReLU()
      (fc2): Linear(in_features=270, out_features=3546, bias=False)
      (skip_add): SkipAdd()
    )
  )
  (out_fc): Linear(in_features=3546, out_features=3072, bias=False)
)
Total parameters: 31,360,824
Trainable parameters: 20,467,512
Training with W_in matrix!
Experiment directory: ./results/imagenet32_denoising_std0.25/bs512_ep4_aug4/hourglass_w_Win_fix_20467512/latent3546_hidden270_270_270_270_270/lr0.0003_run15
Loading ImageNet-32 training data...
  Loading batch 1...
HourGlassMLP(
  (in_fc): Linear(in_features=3072, out_features=3546, bias=False)
  (blocks): ModuleList(
    (0-4): 5 x MLPBlockReLU(
      (norm): BatchNorm1d(3546, eps=1e-05, momentum=0.1, affine=False, track_running_stats=True)
      (fc1): Linear(in_features=3546, out_features=270, bias=False)
      (act): ReLU()
      (fc2): Linear(in_features=270, out_features=3546, bias=False)
      (skip_add): SkipAdd()
    )
  )
  (out_fc): Linear(in_features=3546, out_features=3072, bias=False)
)
Total parameters: 31,360,824
Trainable parameters: 20,467,512
Training with W_in matrix!
Experiment directory: ./results/imagenet32_denoising_std0.25/bs512_ep4_aug4/hourglass_w_Win_fix_20467512/latent3546_hidden270_270_270_270_270/lr0.0003_run13
Loading ImageNet-32 training data...
  Loading batch 1...
  Loading batch 2...
  Loading batch 2...
  Loading batch 2...
…
