…
Running with learning rate: 1e-4
Running with learning rate: 1e-4
Current working directory: /storage/ssd1/ArthurLee/Mediatek_research/hourglass-proj/code/hourglass
Current working directory: /storage/ssd1/ArthurLee/Mediatek_research/hourglass-proj/code/hourglass
Current working directory: /storage/ssd1/ArthurLee/Mediatek_research/hourglass-proj/code/hourglass
Current working directory: /storage/ssd1/ArthurLee/Mediatek_research/hourglass-proj/code/hourglass
Current working directory: /storage/ssd1/ArthurLee/Mediatek_research/hourglass-proj/code/hourglass
cuda:4
cuda:4
cuda:4
HourGlassMLP(
  (in_fc): Linear(in_features=3072, out_features=3546, bias=False)
  (blocks): ModuleList(
    (0-4): 5 x MLPBlockReLU(
      (norm): BatchNorm1d(3546, eps=1e-05, momentum=0.1, affine=False, track_running_stats=True)
      (fc1): Linear(in_features=3546, out_features=270, bias=False)
      (act): ReLU()
      (fc2): Linear(in_features=270, out_features=3546, bias=False)
      (skip_add): SkipAdd()
    )
  )
  (out_fc): Linear(in_features=3546, out_features=3072, bias=False)
)
Total parameters: 31,360,824
Trainable parameters: 31,360,824
Training with W_in matrix!
Experiment directory: ./results/imagenet32_denoising_std0.25/bs512_ep8_aug4/hourglass_w_Win_31360824/latent3546_hidden270_270_270_270_270/lr0.0001_run12
Loading ImageNet-32 training data...
  Loading batch 1...
cuda:4
cuda:4
HourGlassMLP(
  (in_fc): Linear(in_features=3072, out_features=3546, bias=False)
  (blocks): ModuleList(
    (0-4): 5 x MLPBlockReLU(
      (norm): BatchNorm1d(3546, eps=1e-05, momentum=0.1, affine=False, track_running_stats=True)
      (fc1): Linear(in_features=3546, out_features=270, bias=False)
      (act): ReLU()
      (fc2): Linear(in_features=270, out_features=3546, bias=False)
      (skip_add): SkipAdd()
    )
  )
  (out_fc): Linear(in_features=3546, out_features=3072, bias=False)
)
Total parameters: 31,360,824
Trainable parameters: 31,360,824
Training with W_in matrix!
Experiment directory: ./results/imagenet32_denoising_std0.25/bs512_ep8_aug4/hourglass_w_Win_31360824/latent3546_hidden270_270_270_270_270/lr0.0001_run13
Loading ImageNet-32 training data...
  Loading batch 1...
HourGlassMLP(
  (in_fc): Linear(in_features=3072, out_features=3546, bias=False)
  (blocks): ModuleList(
    (0-4): 5 x MLPBlockReLU(
      (norm): BatchNorm1d(3546, eps=1e-05, momentum=0.1, affine=False, track_running_stats=True)
      (fc1): Linear(in_features=3546, out_features=270, bias=False)
      (act): ReLU()
      (fc2): Linear(in_features=270, out_features=3546, bias=False)
      (skip_add): SkipAdd()
    )
  )
  (out_fc): Linear(in_features=3546, out_features=3072, bias=False)
)
Total parameters: 31,360,824
Trainable parameters: 31,360,824
Training with W_in matrix!
Experiment directory: ./results/imagenet32_denoising_std0.25/bs512_ep8_aug4/hourglass_w_Win_31360824/latent3546_hidden270_270_270_270_270/lr0.0001_run11
Loading ImageNet-32 training data...
  Loading batch 1...
HourGlassMLP(
  (in_fc): Linear(in_features=3072, out_features=3546, bias=False)
  (blocks): ModuleList(
    (0-4): 5 x MLPBlockReLU(
      (norm): BatchNorm1d(3546, eps=1e-05, momentum=0.1, affine=False, track_running_stats=True)
      (fc1): Linear(in_features=3546, out_features=270, bias=False)
      (act): ReLU()
      (fc2): Linear(in_features=270, out_features=3546, bias=False)
      (skip_add): SkipAdd()
    )
  )
  (out_fc): Linear(in_features=3546, out_features=3072, bias=False)
)
Total parameters: 31,360,824
Trainable parameters: 31,360,824
Training with W_in matrix!
Experiment directory: ./results/imagenet32_denoising_std0.25/bs512_ep8_aug4/hourglass_w_Win_31360824/latent3546_hidden270_270_270_270_270/lr0.0001_run14
Loading ImageNet-32 training data...
  Loading batch 1...
HourGlassMLP(
  (in_fc): Linear(in_features=3072, out_features=3546, bias=False)
  (blocks): ModuleList(
    (0-4): 5 x MLPBlockReLU(
      (norm): BatchNorm1d(3546, eps=1e-05, momentum=0.1, affine=False, track_running_stats=True)
      (fc1): Linear(in_features=3546, out_features=270, bias=False)
      (act): ReLU()
      (fc2): Linear(in_features=270, out_features=3546, bias=False)
      (skip_add): SkipAdd()
    )
  )
  (out_fc): Linear(in_features=3546, out_features=3072, bias=False)
)
Total parameters: 31,360,824
Trainable parameters: 31,360,824
Training with W_in matrix!
Experiment directory: ./results/imagenet32_denoising_std0.25/bs512_ep8_aug4/hourglass_w_Win_31360824/latent3546_hidden270_270_270_270_270/lr0.0001_run15
Loading ImageNet-32 training data...
  Loading batch 1...
  Loading batch 2...
  Loading batch 2...
  Loading batch 2...
…
