Running: run_id=1, hidden_dims=[785], layers=1
Current working directory: /storage/ssd1/ArthurLee/Mediatek_research/hourglass-proj/code/hourglass
Current working directory: /storage/ssd1/ArthurLee/Mediatek_research/hourglass-proj/code/hourglass
Current working directory: /storage/ssd1/ArthurLee/Mediatek_research/hourglass-proj/code/hourglass
Current working directory: /storage/ssd1/ArthurLee/Mediatek_research/hourglass-proj/code/hourglass
cuda:1
ConventionalMLP(
  (in_fc): Linear(in_features=784, out_features=784, bias=False)
  (blocks): ModuleList(
    (0): MLPBlockReLU(
      (norm): BatchNorm1d(784, eps=1e-05, momentum=0.1, affine=False, track_running_stats=True)
      (fc1): Linear(in_features=784, out_features=785, bias=False)
      (act): ReLU()
      (fc2): Linear(in_features=785, out_features=784, bias=False)
      (skip_add): SkipAdd()
    )
  )
  (out_fc): Linear(in_features=784, out_features=784, bias=False)
)
Total parameters: 2,460,192
Trainable parameters: 2,460,192
Training with W_in matrix!
Experiment directory: ./results/mnist_denoising_std0.25/bs128_ep100_aug4/conventional_w_Win_2460192/latent784_hidden785/lr0.001_run1
cuda:1
cuda:1
cuda:1
Created train split with 50000 samples
Created eval split with 10000 samples

[INFO] Training conventional MLP
[INFO] Logging mode: epoch_based
[INFO] Linear LR Decay (epoch-based): 0.001 -> 0.0 over 100 epochs
ConventionalMLP(
  (in_fc): Linear(in_features=784, out_features=784, bias=False)
  (blocks): ModuleList(
    (0): MLPBlockReLU(
      (norm): BatchNorm1d(784, eps=1e-05, momentum=0.1, affine=False, track_running_stats=True)
      (fc1): Linear(in_features=784, out_features=785, bias=False)
      (act): ReLU()
      (fc2): Linear(in_features=785, out_features=784, bias=False)
      (skip_add): SkipAdd()
    )
  )
  (out_fc): Linear(in_features=784, out_features=784, bias=False)
)
Total parameters: 2,460,192
Trainable parameters: 2,460,192
Training with W_in matrix!
Experiment directory: ./results/mnist_denoising_std0.25/bs128_ep100_aug4/conventional_w_Win_2460192/latent784_hidden785/lr0.005_run1
ConventionalMLP(
  (in_fc): Linear(in_features=784, out_features=784, bias=False)
  (blocks): ModuleList(
    (0): MLPBlockReLU(
      (norm): BatchNorm1d(784, eps=1e-05, momentum=0.1, affine=False, track_running_stats=True)
      (fc1): Linear(in_features=784, out_features=785, bias=False)
      (act): ReLU()
      (fc2): Linear(in_features=785, out_features=784, bias=False)
      (skip_add): SkipAdd()
    )
  )
  (out_fc): Linear(in_features=784, out_features=784, bias=False)
)
Total parameters: 2,460,192
Trainable parameters: 2,460,192
Training with W_in matrix!
Experiment directory: ./results/mnist_denoising_std0.25/bs128_ep100_aug4/conventional_w_Win_2460192/latent784_hidden785/lr0.0005_run1
Created train split with 50000 samples
ConventionalMLP(
  (in_fc): Linear(in_features=784, out_features=784, bias=False)
  (blocks): ModuleList(
    (0): MLPBlockReLU(
      (norm): BatchNorm1d(784, eps=1e-05, momentum=0.1, affine=False, track_running_stats=True)
      (fc1): Linear(in_features=784, out_features=785, bias=False)
      (act): ReLU()
      (fc2): Linear(in_features=785, out_features=784, bias=False)
      (skip_add): SkipAdd()
    )
  )
  (out_fc): Linear(in_features=784, out_features=784, bias=False)
)
Total parameters: 2,460,192
Trainable parameters: 2,460,192
Training with W_in matrix!
Experiment directory: ./results/mnist_denoising_std0.25/bs128_ep100_aug4/conventional_w_Win_2460192/latent784_hidden785/lr0.0001_run1
Created eval split with 10000 samples

[INFO] Training conventional MLP
[INFO] Logging mode: epoch_based
[INFO] Linear LR Decay (epoch-based): 0.005 -> 0.0 over 100 epochs
…
[INFO] Saved results to ./results/mnist_denoising_std0.25/bs128_ep100_aug4/conventional_w_Win_8614592/latent784_hidden785_785_785_785_785_785/lr0.005_run1/experiment_summary.json
Running: run_id=1, hidden_dims=[905], layers=1
Current working directory: /storage/ssd1/ArthurLee/Mediatek_research/hourglass-proj/code/hourglass
Current working directory: /storage/ssd1/ArthurLee/Mediatek_research/hourglass-proj/code/hourglass
Current working directory: /storage/ssd1/ArthurLee/Mediatek_research/hourglass-proj/code/hourglass
Current working directory: /storage/ssd1/ArthurLee/Mediatek_research/hourglass-proj/code/hourglass
cuda:1
cuda:1
ConventionalMLP(
  (in_fc): Linear(in_features=784, out_features=784, bias=False)
  (blocks): ModuleList(
    (0): MLPBlockReLU(
      (norm): BatchNorm1d(784, eps=1e-05, momentum=0.1, affine=False, track_running_stats=True)
      (fc1): Linear(in_features=784, out_features=905, bias=False)
      (act): ReLU()
      (fc2): Linear(in_features=905, out_features=784, bias=False)
      (skip_add): SkipAdd()
    )
  )
  (out_fc): Linear(in_features=784, out_features=784, bias=False)
)
Total parameters: 2,648,352
Trainable parameters: 2,648,352
Training with W_in matrix!
Experiment directory: ./results/mnist_denoising_std0.25/bs128_ep100_aug4/conventional_w_Win_2648352/latent784_hidden905/lr0.0005_run1
Created train split with 50000 samples
cuda:1
Created eval split with 10000 samples
ConventionalMLP(
  (in_fc): Linear(in_features=784, out_features=784, bias=False)
  (blocks): ModuleList(
    (0): MLPBlockReLU(
      (norm): BatchNorm1d(784, eps=1e-05, momentum=0.1, affine=False, track_running_stats=True)
      (fc1): Linear(in_features=784, out_features=905, bias=False)
      (act): ReLU()
      (fc2): Linear(in_features=905, out_features=784, bias=False)
      (skip_add): SkipAdd()
    )
  )
  (out_fc): Linear(in_features=784, out_features=784, bias=False)
)
Total parameters: 2,648,352
Trainable parameters: 2,648,352
Training with W_in matrix!
Experiment directory: ./results/mnist_denoising_std0.25/bs128_ep100_aug4/conventional_w_Win_2648352/latent784_hidden905/lr0.0001_run1

[INFO] Training conventional MLP
[INFO] Logging mode: epoch_based
[INFO] Linear LR Decay (epoch-based): 0.0005 -> 0.0 over 100 epochs
Created train split with 50000 samples
Created eval split with 10000 samples

[INFO] Training conventional MLP
[INFO] Logging mode: epoch_based
[INFO] Linear LR Decay (epoch-based): 0.0001 -> 0.0 over 100 epochs
cuda:1
ConventionalMLP(
  (in_fc): Linear(in_features=784, out_features=784, bias=False)
  (blocks): ModuleList(
    (0): MLPBlockReLU(
      (norm): BatchNorm1d(784, eps=1e-05, momentum=0.1, affine=False, track_running_stats=True)
      (fc1): Linear(in_features=784, out_features=905, bias=False)
      (act): ReLU()
      (fc2): Linear(in_features=905, out_features=784, bias=False)
      (skip_add): SkipAdd()
    )
  )
  (out_fc): Linear(in_features=784, out_features=784, bias=False)
)
Total parameters: 2,648,352
Trainable parameters: 2,648,352
Training with W_in matrix!
Experiment directory: ./results/mnist_denoising_std0.25/bs128_ep100_aug4/conventional_w_Win_2648352/latent784_hidden905/lr0.005_run1
Created train split with 50000 samples
Created eval split with 10000 samples

[INFO] Training conventional MLP
[INFO] Logging mode: epoch_based
[INFO] Linear LR Decay (epoch-based): 0.005 -> 0.0 over 100 epochs
ConventionalMLP(
  (in_fc): Linear(in_features=784, out_features=784, bias=False)
  (blocks): ModuleList(
    (0): MLPBlockReLU(
      (norm): BatchNorm1d(784, eps=1e-05, momentum=0.1, affine=False, track_running_stats=True)
      (fc1): Linear(in_features=784, out_features=905, bias=False)
      (act): ReLU()
      (fc2): Linear(in_features=905, out_features=784, bias=False)
      (skip_add): SkipAdd()
    )
  )
  (out_fc): Linear(in_features=784, out_features=784, bias=False)
)
Total parameters: 2,648,352
Trainable parameters: 2,648,352
Training with W_in matrix!
Experiment directory: ./results/mnist_denoising_std0.25/bs128_ep100_aug4/conventional_w_Win_2648352/latent784_hidden905/lr0.001_run1
Created train split with 50000 samples
Created eval split with 10000 samples

[INFO] Training conventional MLP
[INFO] Logging mode: epoch_based
…
