…
Current working directory: /storage/ssd1/ArthurLee/Mediatek_research/hourglass-proj/code/hourglass
Current working directory: /storage/ssd1/ArthurLee/Mediatek_research/hourglass-proj/code/hourglass
Current working directory: /storage/ssd1/ArthurLee/Mediatek_research/hourglass-proj/code/hourglass
Current working directory: /storage/ssd1/ArthurLee/Mediatek_research/hourglass-proj/code/hourglass
Current working directory: /storage/ssd1/ArthurLee/Mediatek_research/hourglass-proj/code/hourglass
cuda:5
Initialize Win to Identity matrix
Set W_in to non-trianable
cuda:5
cuda:5
cuda:5
cuda:5
Set W_in to non-trianable
Initialize Win to Identity matrix
ConventionalMLP(
  (in_fc): Linear(in_features=3072, out_features=3072, bias=False)
  (blocks): ModuleList(
    (0-3): 4 x MLPBlockReLU(
      (norm): BatchNorm1d(3072, eps=1e-05, momentum=0.1, affine=False, track_running_stats=True)
      (fc1): Linear(in_features=3072, out_features=3546, bias=False)
      (act): ReLU()
      (fc2): Linear(in_features=3546, out_features=3072, bias=False)
      (skip_add): SkipAdd()
    )
  )
  (out_fc): Linear(in_features=3072, out_features=3072, bias=False)
)
Total parameters: 106,020,864
Trainable parameters: 106,020,864
Training with W_in matrix!
Experiment directory: ./results/imagenet32_denoising_std0.25/bs512_ep2/conventional_w_Win_106020864/latent3072_hidden3546_3546_3546_3546/lr0.0001_run1
Loading ImageNet-32 training data...
  Loading batch 1...
ConventionalMLP(
  (in_fc): Linear(in_features=3072, out_features=3072, bias=False)
  (blocks): ModuleList(
    (0-3): 4 x MLPBlockReLU(
      (norm): BatchNorm1d(3072, eps=1e-05, momentum=0.1, affine=False, track_running_stats=True)
      (fc1): Linear(in_features=3072, out_features=3546, bias=False)
      (act): ReLU()
      (fc2): Linear(in_features=3546, out_features=3072, bias=False)
      (skip_add): SkipAdd()
    )
  )
  (out_fc): Linear(in_features=3072, out_features=3072, bias=False)
)
Total parameters: 106,020,864
Trainable parameters: 96,583,680
Training with W_in matrix!
Experiment directory: ./results/imagenet32_denoising_std0.25/bs512_ep2/conventional_w_Win_fix_I_96583680/latent3072_hidden3546_3546_3546_3546/lr0.0001_run1
Loading ImageNet-32 training data...
  Loading batch 1...
ConventionalMLP(
  (in_fc): Linear(in_features=3072, out_features=3072, bias=False)
  (blocks): ModuleList(
    (0-3): 4 x MLPBlockReLU(
      (norm): BatchNorm1d(3072, eps=1e-05, momentum=0.1, affine=False, track_running_stats=True)
      (fc1): Linear(in_features=3072, out_features=3546, bias=False)
      (act): ReLU()
      (fc2): Linear(in_features=3546, out_features=3072, bias=False)
      (skip_add): SkipAdd()
    )
  )
  (out_fc): Linear(in_features=3072, out_features=3072, bias=False)
)
Total parameters: 106,020,864
Trainable parameters: 96,583,680
Training with W_in matrix!
Experiment directory: ./results/imagenet32_denoising_std0.25/bs512_ep2/conventional_w_Win_fix_96583680/latent3072_hidden3546_3546_3546_3546/lr0.0001_run1
Loading ImageNet-32 training data...
  Loading batch 1...
ConventionalMLP(
  (blocks): ModuleList(
    (0-3): 4 x MLPBlockReLU(
      (norm): BatchNorm1d(3072, eps=1e-05, momentum=0.1, affine=False, track_running_stats=True)
      (fc1): Linear(in_features=3072, out_features=3546, bias=False)
      (act): ReLU()
      (fc2): Linear(in_features=3546, out_features=3072, bias=False)
      (skip_add): SkipAdd()
    )
  )
  (out_fc): Linear(in_features=3072, out_features=3072, bias=False)
)
Total parameters: 96,583,680
Trainable parameters: 96,583,680
Training with no W_in matrix!
Experiment directory: ./results/imagenet32_denoising_std0.25/bs512_ep2/conventional_wo_Win_96583680/latent3072_hidden3546_3546_3546_3546/lr0.0001_run1
Loading ImageNet-32 training data...
  Loading batch 1...
ConventionalMLP(
  (in_fc): Linear(in_features=3072, out_features=3072, bias=False)
  (blocks): ModuleList(
    (0-3): 4 x MLPBlockReLU(
      (norm): BatchNorm1d(3072, eps=1e-05, momentum=0.1, affine=False, track_running_stats=True)
      (fc1): Linear(in_features=3072, out_features=3546, bias=False)
      (act): ReLU()
      (fc2): Linear(in_features=3546, out_features=3072, bias=False)
      (skip_add): SkipAdd()
    )
  )
  (out_fc): Linear(in_features=3072, out_features=3072, bias=False)
)
Total parameters: 106,020,864
Trainable parameters: 106,020,864
Training with W_in matrix!
Experiment directory: ./results/imagenet32_denoising_std0.25/bs512_ep2/conventional_w_Win_I_106020864/latent3072_hidden3546_3546_3546_3546/lr0.0001_run1
Loading ImageNet-32 training data...
  Loading batch 1...
  Loading batch 2...
  Loading batch 2...
  Loading batch 2...
…
Current working directory: /storage/ssd1/ArthurLee/Mediatek_research/hourglass-proj/code/hourglass
Current working directory: /storage/ssd1/ArthurLee/Mediatek_research/hourglass-proj/code/hourglass
Current working directory: /storage/ssd1/ArthurLee/Mediatek_research/hourglass-proj/code/hourglass
Current working directory: /storage/ssd1/ArthurLee/Mediatek_research/hourglass-proj/code/hourglass
Current working directory: /storage/ssd1/ArthurLee/Mediatek_research/hourglass-proj/code/hourglass
cuda:5
cuda:5
Initialize Win to Identity matrix
cuda:5
cuda:5
Set W_in to non-trianable
Initialize Win to Identity matrix
Set W_in to non-trianable
cuda:5
ConventionalMLP(
  (in_fc): Linear(in_features=3072, out_features=3072, bias=False)
  (blocks): ModuleList(
    (0-3): 4 x MLPBlockReLU(
      (norm): BatchNorm1d(3072, eps=1e-05, momentum=0.1, affine=False, track_running_stats=True)
      (fc1): Linear(in_features=3072, out_features=3546, bias=False)
      (act): ReLU()
      (fc2): Linear(in_features=3546, out_features=3072, bias=False)
      (skip_add): SkipAdd()
    )
  )
  (out_fc): Linear(in_features=3072, out_features=3072, bias=False)
)
Total parameters: 106,020,864
Trainable parameters: 106,020,864
Training with W_in matrix!
Experiment directory: ./results/imagenet32_denoising_std0.25/bs512_ep2/conventional_w_Win_I_106020864/latent3072_hidden3546_3546_3546_3546/lr0.0003_run1
Loading ImageNet-32 training data...
  Loading batch 1...
ConventionalMLP(
  (blocks): ModuleList(
    (0-3): 4 x MLPBlockReLU(
      (norm): BatchNorm1d(3072, eps=1e-05, momentum=0.1, affine=False, track_running_stats=True)
      (fc1): Linear(in_features=3072, out_features=3546, bias=False)
      (act): ReLU()
      (fc2): Linear(in_features=3546, out_features=3072, bias=False)
      (skip_add): SkipAdd()
    )
  )
  (out_fc): Linear(in_features=3072, out_features=3072, bias=False)
)
Total parameters: 96,583,680
Trainable parameters: 96,583,680
Training with no W_in matrix!
Experiment directory: ./results/imagenet32_denoising_std0.25/bs512_ep2/conventional_wo_Win_96583680/latent3072_hidden3546_3546_3546_3546/lr0.0003_run1
Loading ImageNet-32 training data...
  Loading batch 1...
ConventionalMLP(
  (in_fc): Linear(in_features=3072, out_features=3072, bias=False)
  (blocks): ModuleList(
    (0-3): 4 x MLPBlockReLU(
      (norm): BatchNorm1d(3072, eps=1e-05, momentum=0.1, affine=False, track_running_stats=True)
      (fc1): Linear(in_features=3072, out_features=3546, bias=False)
      (act): ReLU()
      (fc2): Linear(in_features=3546, out_features=3072, bias=False)
      (skip_add): SkipAdd()
    )
  )
  (out_fc): Linear(in_features=3072, out_features=3072, bias=False)
)
Total parameters: 106,020,864
Trainable parameters: 96,583,680
Training with W_in matrix!
Experiment directory: ./results/imagenet32_denoising_std0.25/bs512_ep2/conventional_w_Win_fix_96583680/latent3072_hidden3546_3546_3546_3546/lr0.0003_run1
Loading ImageNet-32 training data...
  Loading batch 1...
ConventionalMLP(
  (in_fc): Linear(in_features=3072, out_features=3072, bias=False)
  (blocks): ModuleList(
    (0-3): 4 x MLPBlockReLU(
      (norm): BatchNorm1d(3072, eps=1e-05, momentum=0.1, affine=False, track_running_stats=True)
      (fc1): Linear(in_features=3072, out_features=3546, bias=False)
      (act): ReLU()
      (fc2): Linear(in_features=3546, out_features=3072, bias=False)
      (skip_add): SkipAdd()
    )
  )
  (out_fc): Linear(in_features=3072, out_features=3072, bias=False)
)
Total parameters: 106,020,864
Trainable parameters: 96,583,680
Training with W_in matrix!
Experiment directory: ./results/imagenet32_denoising_std0.25/bs512_ep2/conventional_w_Win_fix_I_96583680/latent3072_hidden3546_3546_3546_3546/lr0.0003_run1
Loading ImageNet-32 training data...
  Loading batch 1...
ConventionalMLP(
  (in_fc): Linear(in_features=3072, out_features=3072, bias=False)
  (blocks): ModuleList(
    (0-3): 4 x MLPBlockReLU(
      (norm): BatchNorm1d(3072, eps=1e-05, momentum=0.1, affine=False, track_running_stats=True)
      (fc1): Linear(in_features=3072, out_features=3546, bias=False)
      (act): ReLU()
      (fc2): Linear(in_features=3546, out_features=3072, bias=False)
      (skip_add): SkipAdd()
    )
  )
  (out_fc): Linear(in_features=3072, out_features=3072, bias=False)
)
Total parameters: 106,020,864
Trainable parameters: 106,020,864
Training with W_in matrix!
Experiment directory: ./results/imagenet32_denoising_std0.25/bs512_ep2/conventional_w_Win_106020864/latent3072_hidden3546_3546_3546_3546/lr0.0003_run1
Loading ImageNet-32 training data...
  Loading batch 1...
  Loading batch 2...
  Loading batch 2...
  Loading batch 2...
…
