…
Current working directory: /storage/ssd1/ArthurLee/Mediatek_research/hourglass-proj/code/hourglass
Current working directory: /storage/ssd1/ArthurLee/Mediatek_research/hourglass-proj/code/hourglass
Current working directory: /storage/ssd1/ArthurLee/Mediatek_research/hourglass-proj/code/hourglass
Current working directory: /storage/ssd1/ArthurLee/Mediatek_research/hourglass-proj/code/hourglass
Current working directory: /storage/ssd1/ArthurLee/Mediatek_research/hourglass-proj/code/hourglass
cuda:0
cuda:0
Set W_in to non-trianable
cuda:0
cuda:0
Initialize Win to Identity matrix
Initialize Win to Identity matrix
Set W_in to non-trianable
cuda:0
ConventionalMLP(
  (in_fc): Linear(in_features=3072, out_features=3072, bias=False)
  (blocks): ModuleList(
    (0-5): 6 x MLPBlockReLU(
      (norm): BatchNorm1d(3072, eps=1e-05, momentum=0.1, affine=False, track_running_stats=True)
      (fc1): Linear(in_features=3072, out_features=3546, bias=False)
      (act): ReLU()
      (fc2): Linear(in_features=3546, out_features=3072, bias=False)
      (skip_add): SkipAdd()
    )
  )
  (out_fc): Linear(in_features=3072, out_features=3072, bias=False)
)
Total parameters: 149,594,112
Trainable parameters: 149,594,112
Training with W_in matrix!
Experiment directory: ./results/imagenet32_denoising_std0.25/bs512_ep4_aug4/conventional_w_Win_149594112/latent3072_hidden3546_3546_3546_3546_3546_3546/lr0.0001_run1
Loading ImageNet-32 training data...
  Loading batch 1...
ConventionalMLP(
  (in_fc): Linear(in_features=3072, out_features=3072, bias=False)
  (blocks): ModuleList(
    (0-5): 6 x MLPBlockReLU(
      (norm): BatchNorm1d(3072, eps=1e-05, momentum=0.1, affine=False, track_running_stats=True)
      (fc1): Linear(in_features=3072, out_features=3546, bias=False)
      (act): ReLU()
      (fc2): Linear(in_features=3546, out_features=3072, bias=False)
      (skip_add): SkipAdd()
    )
  )
  (out_fc): Linear(in_features=3072, out_features=3072, bias=False)
)
Total parameters: 149,594,112
Trainable parameters: 140,156,928
Training with W_in matrix!
Experiment directory: ./results/imagenet32_denoising_std0.25/bs512_ep4_aug4/conventional_w_Win_fix_140156928/latent3072_hidden3546_3546_3546_3546_3546_3546/lr0.0001_run1
Loading ImageNet-32 training data...
  Loading batch 1...
ConventionalMLP(
  (in_fc): Linear(in_features=3072, out_features=3072, bias=False)
  (blocks): ModuleList(
    (0-5): 6 x MLPBlockReLU(
      (norm): BatchNorm1d(3072, eps=1e-05, momentum=0.1, affine=False, track_running_stats=True)
      (fc1): Linear(in_features=3072, out_features=3546, bias=False)
      (act): ReLU()
      (fc2): Linear(in_features=3546, out_features=3072, bias=False)
      (skip_add): SkipAdd()
    )
  )
  (out_fc): Linear(in_features=3072, out_features=3072, bias=False)
)
Total parameters: 149,594,112
Trainable parameters: 149,594,112
Training with W_in matrix!
Experiment directory: ./results/imagenet32_denoising_std0.25/bs512_ep4_aug4/conventional_w_Win_I_149594112/latent3072_hidden3546_3546_3546_3546_3546_3546/lr0.0001_run1
Loading ImageNet-32 training data...
  Loading batch 1...
ConventionalMLP(
  (blocks): ModuleList(
    (0-5): 6 x MLPBlockReLU(
      (norm): BatchNorm1d(3072, eps=1e-05, momentum=0.1, affine=False, track_running_stats=True)
      (fc1): Linear(in_features=3072, out_features=3546, bias=False)
      (act): ReLU()
      (fc2): Linear(in_features=3546, out_features=3072, bias=False)
      (skip_add): SkipAdd()
    )
  )
  (out_fc): Linear(in_features=3072, out_features=3072, bias=False)
)
Total parameters: 140,156,928
Trainable parameters: 140,156,928
Training with no W_in matrix!
Experiment directory: ./results/imagenet32_denoising_std0.25/bs512_ep4_aug4/conventional_wo_Win_140156928/latent3072_hidden3546_3546_3546_3546_3546_3546/lr0.0001_run1
ConventionalMLP(
  (in_fc): Linear(in_features=3072, out_features=3072, bias=False)
  (blocks): ModuleList(
    (0-5): 6 x MLPBlockReLU(
      (norm): BatchNorm1d(3072, eps=1e-05, momentum=0.1, affine=False, track_running_stats=True)
      (fc1): Linear(in_features=3072, out_features=3546, bias=False)
      (act): ReLU()
      (fc2): Linear(in_features=3546, out_features=3072, bias=False)
      (skip_add): SkipAdd()
    )
  )
  (out_fc): Linear(in_features=3072, out_features=3072, bias=False)
)
Total parameters: 149,594,112
Trainable parameters: 140,156,928
Training with W_in matrix!
Experiment directory: ./results/imagenet32_denoising_std0.25/bs512_ep4_aug4/conventional_w_Win_fix_I_140156928/latent3072_hidden3546_3546_3546_3546_3546_3546/lr0.0001_run1
Loading ImageNet-32 training data...
  Loading batch 1...
Loading ImageNet-32 training data...
…
Current working directory: /storage/ssd1/ArthurLee/Mediatek_research/hourglass-proj/code/hourglass
Current working directory: /storage/ssd1/ArthurLee/Mediatek_research/hourglass-proj/code/hourglass
Current working directory: /storage/ssd1/ArthurLee/Mediatek_research/hourglass-proj/code/hourglass
Current working directory: /storage/ssd1/ArthurLee/Mediatek_research/hourglass-proj/code/hourglass
Current working directory: /storage/ssd1/ArthurLee/Mediatek_research/hourglass-proj/code/hourglass
cuda:0
Initialize Win to Identity matrix
Set W_in to non-trianable
cuda:0
Set W_in to non-trianable
cuda:0
cuda:0
cuda:0
Initialize Win to Identity matrix
ConventionalMLP(
  (in_fc): Linear(in_features=3072, out_features=3072, bias=False)
  (blocks): ModuleList(
    (0-5): 6 x MLPBlockReLU(
      (norm): BatchNorm1d(3072, eps=1e-05, momentum=0.1, affine=False, track_running_stats=True)
      (fc1): Linear(in_features=3072, out_features=3546, bias=False)
      (act): ReLU()
      (fc2): Linear(in_features=3546, out_features=3072, bias=False)
      (skip_add): SkipAdd()
    )
  )
  (out_fc): Linear(in_features=3072, out_features=3072, bias=False)
)
Total parameters: 149,594,112
Trainable parameters: 140,156,928
Training with W_in matrix!
Experiment directory: ./results/imagenet32_denoising_std0.25/bs512_ep4_aug4/conventional_w_Win_fix_I_140156928/latent3072_hidden3546_3546_3546_3546_3546_3546/lr0.0003_run1
Loading ImageNet-32 training data...
  Loading batch 1...
ConventionalMLP(
  (in_fc): Linear(in_features=3072, out_features=3072, bias=False)
  (blocks): ModuleList(
    (0-5): 6 x MLPBlockReLU(
      (norm): BatchNorm1d(3072, eps=1e-05, momentum=0.1, affine=False, track_running_stats=True)
      (fc1): Linear(in_features=3072, out_features=3546, bias=False)
      (act): ReLU()
      (fc2): Linear(in_features=3546, out_features=3072, bias=False)
      (skip_add): SkipAdd()
    )
  )
  (out_fc): Linear(in_features=3072, out_features=3072, bias=False)
)
Total parameters: 149,594,112
Trainable parameters: 140,156,928
Training with W_in matrix!
Experiment directory: ./results/imagenet32_denoising_std0.25/bs512_ep4_aug4/conventional_w_Win_fix_140156928/latent3072_hidden3546_3546_3546_3546_3546_3546/lr0.0003_run1
Loading ImageNet-32 training data...
  Loading batch 1...
ConventionalMLP(
  (blocks): ModuleList(
    (0-5): 6 x MLPBlockReLU(
      (norm): BatchNorm1d(3072, eps=1e-05, momentum=0.1, affine=False, track_running_stats=True)
      (fc1): Linear(in_features=3072, out_features=3546, bias=False)
      (act): ReLU()
      (fc2): Linear(in_features=3546, out_features=3072, bias=False)
      (skip_add): SkipAdd()
    )
  )
  (out_fc): Linear(in_features=3072, out_features=3072, bias=False)
)
Total parameters: 140,156,928
Trainable parameters: 140,156,928
Training with no W_in matrix!
Experiment directory: ./results/imagenet32_denoising_std0.25/bs512_ep4_aug4/conventional_wo_Win_140156928/latent3072_hidden3546_3546_3546_3546_3546_3546/lr0.0003_run1
Loading ImageNet-32 training data...
  Loading batch 1...
ConventionalMLP(
  (in_fc): Linear(in_features=3072, out_features=3072, bias=False)
  (blocks): ModuleList(
    (0-5): 6 x MLPBlockReLU(
      (norm): BatchNorm1d(3072, eps=1e-05, momentum=0.1, affine=False, track_running_stats=True)
      (fc1): Linear(in_features=3072, out_features=3546, bias=False)
      (act): ReLU()
      (fc2): Linear(in_features=3546, out_features=3072, bias=False)
      (skip_add): SkipAdd()
    )
  )
  (out_fc): Linear(in_features=3072, out_features=3072, bias=False)
)
Total parameters: 149,594,112
Trainable parameters: 149,594,112
Training with W_in matrix!
Experiment directory: ./results/imagenet32_denoising_std0.25/bs512_ep4_aug4/conventional_w_Win_149594112/latent3072_hidden3546_3546_3546_3546_3546_3546/lr0.0003_run1
Loading ImageNet-32 training data...
  Loading batch 1...
ConventionalMLP(
  (in_fc): Linear(in_features=3072, out_features=3072, bias=False)
  (blocks): ModuleList(
    (0-5): 6 x MLPBlockReLU(
      (norm): BatchNorm1d(3072, eps=1e-05, momentum=0.1, affine=False, track_running_stats=True)
      (fc1): Linear(in_features=3072, out_features=3546, bias=False)
      (act): ReLU()
      (fc2): Linear(in_features=3546, out_features=3072, bias=False)
      (skip_add): SkipAdd()
    )
  )
  (out_fc): Linear(in_features=3072, out_features=3072, bias=False)
)
Total parameters: 149,594,112
Trainable parameters: 149,594,112
Training with W_in matrix!
Experiment directory: ./results/imagenet32_denoising_std0.25/bs512_ep4_aug4/conventional_w_Win_I_149594112/latent3072_hidden3546_3546_3546_3546_3546_3546/lr0.0003_run1
Loading ImageNet-32 training data...
  Loading batch 1...
  Loading batch 2...
  Loading batch 2...
…
Current working directory: /storage/ssd1/ArthurLee/Mediatek_research/hourglass-proj/code/hourglassCurrent working directory: /storage/ssd1/ArthurLee/Mediatek_research/hourglass-proj/code/hourglass

Current working directory: /storage/ssd1/ArthurLee/Mediatek_research/hourglass-proj/code/hourglass
Current working directory: /storage/ssd1/ArthurLee/Mediatek_research/hourglass-proj/code/hourglass
cuda:0
cuda:0
cuda:0
Initialize Win to Identity matrix
cuda:0
Initialize Win to Identity matrix
Set W_in to non-trianable
cuda:0
Set W_in to non-trianable
ConventionalMLP(
  (blocks): ModuleList(
    (0-5): 6 x MLPBlockReLU(
      (norm): BatchNorm1d(3072, eps=1e-05, momentum=0.1, affine=False, track_running_stats=True)
      (fc1): Linear(in_features=3072, out_features=3546, bias=False)
      (act): ReLU()
      (fc2): Linear(in_features=3546, out_features=3072, bias=False)
      (skip_add): SkipAdd()
    )
  )
  (out_fc): Linear(in_features=3072, out_features=3072, bias=False)
)
Total parameters: 140,156,928
Trainable parameters: 140,156,928
Training with no W_in matrix!
Experiment directory: ./results/imagenet32_denoising_std0.25/bs512_ep4_aug4/conventional_wo_Win_140156928/latent3072_hidden3546_3546_3546_3546_3546_3546/lr0.0001_run2
Loading ImageNet-32 training data...
  Loading batch 1...
ConventionalMLP(
  (in_fc): Linear(in_features=3072, out_features=3072, bias=False)
  (blocks): ModuleList(
    (0-5): 6 x MLPBlockReLU(
      (norm): BatchNorm1d(3072, eps=1e-05, momentum=0.1, affine=False, track_running_stats=True)
      (fc1): Linear(in_features=3072, out_features=3546, bias=False)
      (act): ReLU()
      (fc2): Linear(in_features=3546, out_features=3072, bias=False)
      (skip_add): SkipAdd()
    )
  )
  (out_fc): Linear(in_features=3072, out_features=3072, bias=False)
)
Total parameters: 149,594,112
Trainable parameters: 149,594,112
Training with W_in matrix!
Experiment directory: ./results/imagenet32_denoising_std0.25/bs512_ep4_aug4/conventional_w_Win_149594112/latent3072_hidden3546_3546_3546_3546_3546_3546/lr0.0001_run2
Loading ImageNet-32 training data...
  Loading batch 1...
ConventionalMLP(
  (in_fc): Linear(in_features=3072, out_features=3072, bias=False)
  (blocks): ModuleList(
    (0-5): 6 x MLPBlockReLU(
      (norm): BatchNorm1d(3072, eps=1e-05, momentum=0.1, affine=False, track_running_stats=True)
      (fc1): Linear(in_features=3072, out_features=3546, bias=False)
      (act): ReLU()
      (fc2): Linear(in_features=3546, out_features=3072, bias=False)
      (skip_add): SkipAdd()
    )
  )
  (out_fc): Linear(in_features=3072, out_features=3072, bias=False)
)
Total parameters: 149,594,112
Trainable parameters: 149,594,112
Training with W_in matrix!
Experiment directory: ./results/imagenet32_denoising_std0.25/bs512_ep4_aug4/conventional_w_Win_I_149594112/latent3072_hidden3546_3546_3546_3546_3546_3546/lr0.0001_run2
Loading ImageNet-32 training data...
  Loading batch 1...
ConventionalMLP(
  (in_fc): Linear(in_features=3072, out_features=3072, bias=False)
  (blocks): ModuleList(
    (0-5): 6 x MLPBlockReLU(
      (norm): BatchNorm1d(3072, eps=1e-05, momentum=0.1, affine=False, track_running_stats=True)
      (fc1): Linear(in_features=3072, out_features=3546, bias=False)
      (act): ReLU()
      (fc2): Linear(in_features=3546, out_features=3072, bias=False)
      (skip_add): SkipAdd()
    )
  )
  (out_fc): Linear(in_features=3072, out_features=3072, bias=False)
)
Total parameters: 149,594,112
Trainable parameters: 140,156,928
Training with W_in matrix!
Experiment directory: ./results/imagenet32_denoising_std0.25/bs512_ep4_aug4/conventional_w_Win_fix_I_140156928/latent3072_hidden3546_3546_3546_3546_3546_3546/lr0.0001_run2
Loading ImageNet-32 training data...
  Loading batch 1...
ConventionalMLP(
  (in_fc): Linear(in_features=3072, out_features=3072, bias=False)
  (blocks): ModuleList(
    (0-5): 6 x MLPBlockReLU(
      (norm): BatchNorm1d(3072, eps=1e-05, momentum=0.1, affine=False, track_running_stats=True)
      (fc1): Linear(in_features=3072, out_features=3546, bias=False)
      (act): ReLU()
      (fc2): Linear(in_features=3546, out_features=3072, bias=False)
      (skip_add): SkipAdd()
    )
  )
  (out_fc): Linear(in_features=3072, out_features=3072, bias=False)
)
Total parameters: 149,594,112
Trainable parameters: 140,156,928
Training with W_in matrix!
Experiment directory: ./results/imagenet32_denoising_std0.25/bs512_ep4_aug4/conventional_w_Win_fix_140156928/latent3072_hidden3546_3546_3546_3546_3546_3546/lr0.0001_run2
Loading ImageNet-32 training data...
  Loading batch 1...
  Loading batch 2...
  Loading batch 2...
…
