…
Current working directory: /storage/ssd1/ArthurLee/Mediatek_research/hourglass-proj/code/hourglass
Current working directory: /storage/ssd1/ArthurLee/Mediatek_research/hourglass-proj/code/hourglass
Current working directory: /storage/ssd1/ArthurLee/Mediatek_research/hourglass-proj/code/hourglass
Current working directory: /storage/ssd1/ArthurLee/Mediatek_research/hourglass-proj/code/hourglass
Current working directory: /storage/ssd1/ArthurLee/Mediatek_research/hourglass-proj/code/hourglass
cuda:6
Initialize Win to Identity matrix
cuda:6
cuda:6
Set W_in to non-trianable
cuda:6
cuda:6
Initialize Win to Identity matrix
Set W_in to non-trianable
ConventionalMLP(
  (in_fc): Linear(in_features=784, out_features=784, bias=False)
  (blocks): ModuleList(
    (0-9): 10 x MLPBlockReLU(
      (norm): BatchNorm1d(784, eps=1e-05, momentum=0.1, affine=False, track_running_stats=True)
      (fc1): Linear(in_features=784, out_features=1150, bias=False)
      (act): ReLU()
      (fc2): Linear(in_features=1150, out_features=784, bias=False)
      (skip_add): SkipAdd()
    )
  )
  (out_fc): Linear(in_features=784, out_features=784, bias=False)
)
Total parameters: 19,261,312
Trainable parameters: 19,261,312
Training with W_in matrix!
Experiment directory: ./results/mnist_denoising_std0.25/bs128_ep100/conventional_w_Win_I_19261312/latent784_hidden1150_1150_1150_1150_1150_1150_1150_1150_1150_1150/lr5e-05_run1
Traceback (most recent call last):
  File "/storage/ssd1/ArthurLee/Mediatek_research/hourglass-proj/code/hourglass/run.py", line 228, in <module>
…
Current working directory: /storage/ssd1/ArthurLee/Mediatek_research/hourglass-proj/code/hourglass
Current working directory: /storage/ssd1/ArthurLee/Mediatek_research/hourglass-proj/code/hourglass
Current working directory: /storage/ssd1/ArthurLee/Mediatek_research/hourglass-proj/code/hourglass
Current working directory: /storage/ssd1/ArthurLee/Mediatek_research/hourglass-proj/code/hourglass
Current working directory: /storage/ssd1/ArthurLee/Mediatek_research/hourglass-proj/code/hourglass
cuda:6
Set W_in to non-trianable
cuda:6
cuda:6
Initialize Win to Identity matrix
cuda:6
Initialize Win to Identity matrix
Set W_in to non-trianable
cuda:6
ConventionalMLP(
  (in_fc): Linear(in_features=784, out_features=784, bias=False)
  (blocks): ModuleList(
    (0-9): 10 x MLPBlockReLU(
      (norm): BatchNorm1d(784, eps=1e-05, momentum=0.1, affine=False, track_running_stats=True)
      (fc1): Linear(in_features=784, out_features=1150, bias=False)
      (act): ReLU()
      (fc2): Linear(in_features=1150, out_features=784, bias=False)
      (skip_add): SkipAdd()
    )
  )
  (out_fc): Linear(in_features=784, out_features=784, bias=False)
)
Total parameters: 19,261,312
Trainable parameters: 18,646,656
Training with W_in matrix!
Experiment directory: ./results/mnist_denoising_std0.25/bs128_ep100/conventional_w_Win_fix_18646656/latent784_hidden1150_1150_1150_1150_1150_1150_1150_1150_1150_1150/lr0.0001_run1
Created train split with 50000 samples
Created eval split with 10000 samples

[INFO] Training conventional MLP
[INFO] Logging mode: epoch_based
[INFO] Linear LR Decay (epoch-based): 0.0001 -> 0.0 over 100 epochs
ConventionalMLP(
  (in_fc): Linear(in_features=784, out_features=784, bias=False)
  (blocks): ModuleList(
    (0-9): 10 x MLPBlockReLU(
      (norm): BatchNorm1d(784, eps=1e-05, momentum=0.1, affine=False, track_running_stats=True)
      (fc1): Linear(in_features=784, out_features=1150, bias=False)
      (act): ReLU()
      (fc2): Linear(in_features=1150, out_features=784, bias=False)
      (skip_add): SkipAdd()
    )
  )
  (out_fc): Linear(in_features=784, out_features=784, bias=False)
)
Total parameters: 19,261,312
Trainable parameters: 19,261,312
Training with W_in matrix!
Experiment directory: ./results/mnist_denoising_std0.25/bs128_ep100/conventional_w_Win_I_19261312/latent784_hidden1150_1150_1150_1150_1150_1150_1150_1150_1150_1150/lr0.0001_run1
Created train split with 50000 samples
ConventionalMLP(
  (blocks): ModuleList(
    (0-9): 10 x MLPBlockReLU(
      (norm): BatchNorm1d(784, eps=1e-05, momentum=0.1, affine=False, track_running_stats=True)
      (fc1): Linear(in_features=784, out_features=1150, bias=False)
      (act): ReLU()
      (fc2): Linear(in_features=1150, out_features=784, bias=False)
      (skip_add): SkipAdd()
    )
  )
  (out_fc): Linear(in_features=784, out_features=784, bias=False)
)
Total parameters: 18,646,656
Trainable parameters: 18,646,656
Training with no W_in matrix!
Experiment directory: ./results/mnist_denoising_std0.25/bs128_ep100/conventional_wo_Win_18646656/latent784_hidden1150_1150_1150_1150_1150_1150_1150_1150_1150_1150/lr0.0001_run1
Created eval split with 10000 samples
Created train split with 50000 samples

[INFO] Training conventional MLP
[INFO] Logging mode: epoch_based
[INFO] Linear LR Decay (epoch-based): 0.0001 -> 0.0 over 100 epochs
Created eval split with 10000 samples

[INFO] Training conventional MLP
[INFO] Logging mode: epoch_based
[INFO] Linear LR Decay (epoch-based): 0.0001 -> 0.0 over 100 epochs
ConventionalMLP(
  (in_fc): Linear(in_features=784, out_features=784, bias=False)
  (blocks): ModuleList(
    (0-9): 10 x MLPBlockReLU(
      (norm): BatchNorm1d(784, eps=1e-05, momentum=0.1, affine=False, track_running_stats=True)
      (fc1): Linear(in_features=784, out_features=1150, bias=False)
      (act): ReLU()
      (fc2): Linear(in_features=1150, out_features=784, bias=False)
      (skip_add): SkipAdd()
    )
  )
  (out_fc): Linear(in_features=784, out_features=784, bias=False)
)
Total parameters: 19,261,312
Trainable parameters: 18,646,656
Training with W_in matrix!
Experiment directory: ./results/mnist_denoising_std0.25/bs128_ep100/conventional_w_Win_fix_I_18646656/latent784_hidden1150_1150_1150_1150_1150_1150_1150_1150_1150_1150/lr0.0001_run1
Created train split with 50000 samples
ConventionalMLP(
  (in_fc): Linear(in_features=784, out_features=784, bias=False)
  (blocks): ModuleList(
    (0-9): 10 x MLPBlockReLU(
      (norm): BatchNorm1d(784, eps=1e-05, momentum=0.1, affine=False, track_running_stats=True)
      (fc1): Linear(in_features=784, out_features=1150, bias=False)
      (act): ReLU()
      (fc2): Linear(in_features=1150, out_features=784, bias=False)
      (skip_add): SkipAdd()
    )
  )
  (out_fc): Linear(in_features=784, out_features=784, bias=False)
)
Total parameters: 19,261,312
Trainable parameters: 19,261,312
Training with W_in matrix!
Experiment directory: ./results/mnist_denoising_std0.25/bs128_ep100/conventional_w_Win_19261312/latent784_hidden1150_1150_1150_1150_1150_1150_1150_1150_1150_1150/lr0.0001_run1
Created eval split with 10000 samples

[INFO] Training conventional MLP
[INFO] Logging mode: epoch_based
…
Current working directory: /storage/ssd1/ArthurLee/Mediatek_research/hourglass-proj/code/hourglass
Current working directory: /storage/ssd1/ArthurLee/Mediatek_research/hourglass-proj/code/hourglass
Current working directory: /storage/ssd1/ArthurLee/Mediatek_research/hourglass-proj/code/hourglass
Current working directory: /storage/ssd1/ArthurLee/Mediatek_research/hourglass-proj/code/hourglass
Current working directory: /storage/ssd1/ArthurLee/Mediatek_research/hourglass-proj/code/hourglass
cuda:6
Initialize Win to Identity matrix
cuda:6
cuda:6
Set W_in to non-trianable
cuda:6
cuda:6
Initialize Win to Identity matrix
Set W_in to non-trianable
ConventionalMLP(
  (in_fc): Linear(in_features=784, out_features=784, bias=False)
  (blocks): ModuleList(
    (0-9): 10 x MLPBlockReLU(
      (norm): BatchNorm1d(784, eps=1e-05, momentum=0.1, affine=False, track_running_stats=True)
      (fc1): Linear(in_features=784, out_features=1150, bias=False)
      (act): ReLU()
      (fc2): Linear(in_features=1150, out_features=784, bias=False)
      (skip_add): SkipAdd()
    )
  )
  (out_fc): Linear(in_features=784, out_features=784, bias=False)
)
Total parameters: 19,261,312
Trainable parameters: 19,261,312
Training with W_in matrix!
Experiment directory: ./results/mnist_denoising_std0.25/bs128_ep100/conventional_w_Win_I_19261312/latent784_hidden1150_1150_1150_1150_1150_1150_1150_1150_1150_1150/lr5e-05_run2
ConventionalMLP(
  (blocks): ModuleList(
    (0-9): 10 x MLPBlockReLU(
      (norm): BatchNorm1d(784, eps=1e-05, momentum=0.1, affine=False, track_running_stats=True)
      (fc1): Linear(in_features=784, out_features=1150, bias=False)
      (act): ReLU()
      (fc2): Linear(in_features=1150, out_features=784, bias=False)
      (skip_add): SkipAdd()
    )
  )
  (out_fc): Linear(in_features=784, out_features=784, bias=False)
)
Total parameters: 18,646,656
Trainable parameters: 18,646,656
Training with no W_in matrix!
Experiment directory: ./results/mnist_denoising_std0.25/bs128_ep100/conventional_wo_Win_18646656/latent784_hidden1150_1150_1150_1150_1150_1150_1150_1150_1150_1150/lr5e-05_run2
Created train split with 50000 samples
Created eval split with 10000 samples
Created train split with 50000 samples

[INFO] Training conventional MLP
[INFO] Logging mode: epoch_based
[INFO] Linear LR Decay (epoch-based): 5e-05 -> 0.0 over 100 epochs
Created eval split with 10000 samples
ConventionalMLP(
  (in_fc): Linear(in_features=784, out_features=784, bias=False)
  (blocks): ModuleList(
    (0-9): 10 x MLPBlockReLU(
      (norm): BatchNorm1d(784, eps=1e-05, momentum=0.1, affine=False, track_running_stats=True)
      (fc1): Linear(in_features=784, out_features=1150, bias=False)
      (act): ReLU()
      (fc2): Linear(in_features=1150, out_features=784, bias=False)
      (skip_add): SkipAdd()
    )
  )
  (out_fc): Linear(in_features=784, out_features=784, bias=False)
)
Total parameters: 19,261,312
Trainable parameters: 18,646,656
Training with W_in matrix!
Experiment directory: ./results/mnist_denoising_std0.25/bs128_ep100/conventional_w_Win_fix_18646656/latent784_hidden1150_1150_1150_1150_1150_1150_1150_1150_1150_1150/lr5e-05_run2

[INFO] Training conventional MLP
[INFO] Logging mode: epoch_based
[INFO] Linear LR Decay (epoch-based): 5e-05 -> 0.0 over 100 epochs
Created train split with 50000 samples
Created eval split with 10000 samples

[INFO] Training conventional MLP
[INFO] Logging mode: epoch_based
[INFO] Linear LR Decay (epoch-based): 5e-05 -> 0.0 over 100 epochs
ConventionalMLP(
  (in_fc): Linear(in_features=784, out_features=784, bias=False)
  (blocks): ModuleList(
    (0-9): 10 x MLPBlockReLU(
      (norm): BatchNorm1d(784, eps=1e-05, momentum=0.1, affine=False, track_running_stats=True)
      (fc1): Linear(in_features=784, out_features=1150, bias=False)
      (act): ReLU()
      (fc2): Linear(in_features=1150, out_features=784, bias=False)
      (skip_add): SkipAdd()
    )
  )
  (out_fc): Linear(in_features=784, out_features=784, bias=False)
)
Total parameters: 19,261,312
Trainable parameters: 19,261,312
Training with W_in matrix!
Experiment directory: ./results/mnist_denoising_std0.25/bs128_ep100/conventional_w_Win_19261312/latent784_hidden1150_1150_1150_1150_1150_1150_1150_1150_1150_1150/lr5e-05_run2
Created train split with 50000 samples
ConventionalMLP(
  (in_fc): Linear(in_features=784, out_features=784, bias=False)
  (blocks): ModuleList(
    (0-9): 10 x MLPBlockReLU(
      (norm): BatchNorm1d(784, eps=1e-05, momentum=0.1, affine=False, track_running_stats=True)
      (fc1): Linear(in_features=784, out_features=1150, bias=False)
      (act): ReLU()
      (fc2): Linear(in_features=1150, out_features=784, bias=False)
      (skip_add): SkipAdd()
    )
  )
  (out_fc): Linear(in_features=784, out_features=784, bias=False)
)
Total parameters: 19,261,312
Trainable parameters: 18,646,656
Training with W_in matrix!
Experiment directory: ./results/mnist_denoising_std0.25/bs128_ep100/conventional_w_Win_fix_I_18646656/latent784_hidden1150_1150_1150_1150_1150_1150_1150_1150_1150_1150/lr5e-05_run2
Created eval split with 10000 samples

[INFO] Training conventional MLP
[INFO] Logging mode: epoch_based
…
==========================================
Current working directory: /storage/ssd1/ArthurLee/Mediatek_research/hourglass-proj/code/hourglass
Current working directory: /storage/ssd1/ArthurLee/Mediatek_research/hourglass-proj/code/hourglass
Current working directory: /storage/ssd1/ArthurLee/Mediatek_research/hourglass-proj/code/hourglass
Current working directory: /storage/ssd1/ArthurLee/Mediatek_research/hourglass-proj/code/hourglass
Current working directory: /storage/ssd1/ArthurLee/Mediatek_research/hourglass-proj/code/hourglass
cuda:6
Initialize Win to Identity matrix
cuda:6
ConventionalMLP(
  (in_fc): Linear(in_features=784, out_features=784, bias=False)
  (blocks): ModuleList(
    (0-9): 10 x MLPBlockReLU(
      (norm): BatchNorm1d(784, eps=1e-05, momentum=0.1, affine=False, track_running_stats=True)
      (fc1): Linear(in_features=784, out_features=1150, bias=False)
      (act): ReLU()
      (fc2): Linear(in_features=1150, out_features=784, bias=False)
      (skip_add): SkipAdd()
    )
  )
  (out_fc): Linear(in_features=784, out_features=784, bias=False)
)
Total parameters: 19,261,312
Trainable parameters: 19,261,312
Training with W_in matrix!
Experiment directory: ./results/mnist_denoising_std0.25/bs128_ep100/conventional_w_Win_I_19261312/latent784_hidden1150_1150_1150_1150_1150_1150_1150_1150_1150_1150/lr0.0001_run2
Created train split with 50000 samples
Created eval split with 10000 samples

[INFO] Training conventional MLP
[INFO] Logging mode: epoch_based
[INFO] Linear LR Decay (epoch-based): 0.0001 -> 0.0 over 100 epochs
cuda:6
Initialize Win to Identity matrix
Set W_in to non-trianable
cuda:6
Set W_in to non-trianable
cuda:6
ConventionalMLP(
  (in_fc): Linear(in_features=784, out_features=784, bias=False)
  (blocks): ModuleList(
    (0-9): 10 x MLPBlockReLU(
      (norm): BatchNorm1d(784, eps=1e-05, momentum=0.1, affine=False, track_running_stats=True)
      (fc1): Linear(in_features=784, out_features=1150, bias=False)
      (act): ReLU()
      (fc2): Linear(in_features=1150, out_features=784, bias=False)
      (skip_add): SkipAdd()
    )
  )
  (out_fc): Linear(in_features=784, out_features=784, bias=False)
)
Total parameters: 19,261,312
Trainable parameters: 19,261,312
Training with W_in matrix!
Experiment directory: ./results/mnist_denoising_std0.25/bs128_ep100/conventional_w_Win_19261312/latent784_hidden1150_1150_1150_1150_1150_1150_1150_1150_1150_1150/lr0.0001_run2
Created train split with 50000 samples
Created eval split with 10000 samples

[INFO] Training conventional MLP
[INFO] Logging mode: epoch_based
[INFO] Linear LR Decay (epoch-based): 0.0001 -> 0.0 over 100 epochs
ConventionalMLP(
  (in_fc): Linear(in_features=784, out_features=784, bias=False)
  (blocks): ModuleList(
    (0-9): 10 x MLPBlockReLU(
      (norm): BatchNorm1d(784, eps=1e-05, momentum=0.1, affine=False, track_running_stats=True)
      (fc1): Linear(in_features=784, out_features=1150, bias=False)
      (act): ReLU()
      (fc2): Linear(in_features=1150, out_features=784, bias=False)
      (skip_add): SkipAdd()
    )
  )
  (out_fc): Linear(in_features=784, out_features=784, bias=False)
)
Total parameters: 19,261,312
Trainable parameters: 18,646,656
Training with W_in matrix!
Experiment directory: ./results/mnist_denoising_std0.25/bs128_ep100/conventional_w_Win_fix_I_18646656/latent784_hidden1150_1150_1150_1150_1150_1150_1150_1150_1150_1150/lr0.0001_run2
Created train split with 50000 samples
ConventionalMLP(
  (in_fc): Linear(in_features=784, out_features=784, bias=False)
  (blocks): ModuleList(
    (0-9): 10 x MLPBlockReLU(
      (norm): BatchNorm1d(784, eps=1e-05, momentum=0.1, affine=False, track_running_stats=True)
      (fc1): Linear(in_features=784, out_features=1150, bias=False)
      (act): ReLU()
      (fc2): Linear(in_features=1150, out_features=784, bias=False)
      (skip_add): SkipAdd()
    )
  )
  (out_fc): Linear(in_features=784, out_features=784, bias=False)
)
Total parameters: 19,261,312
Trainable parameters: 18,646,656
Training with W_in matrix!
Experiment directory: ./results/mnist_denoising_std0.25/bs128_ep100/conventional_w_Win_fix_18646656/latent784_hidden1150_1150_1150_1150_1150_1150_1150_1150_1150_1150/lr0.0001_run2
Created eval split with 10000 samples

[INFO] Training conventional MLP
[INFO] Logging mode: epoch_based
[INFO] Linear LR Decay (epoch-based): 0.0001 -> 0.0 over 100 epochs
Created train split with 50000 samples
ConventionalMLP(
  (blocks): ModuleList(
    (0-9): 10 x MLPBlockReLU(
      (norm): BatchNorm1d(784, eps=1e-05, momentum=0.1, affine=False, track_running_stats=True)
      (fc1): Linear(in_features=784, out_features=1150, bias=False)
      (act): ReLU()
      (fc2): Linear(in_features=1150, out_features=784, bias=False)
      (skip_add): SkipAdd()
    )
  )
  (out_fc): Linear(in_features=784, out_features=784, bias=False)
)
Total parameters: 18,646,656
Trainable parameters: 18,646,656
Training with no W_in matrix!
Experiment directory: ./results/mnist_denoising_std0.25/bs128_ep100/conventional_wo_Win_18646656/latent784_hidden1150_1150_1150_1150_1150_1150_1150_1150_1150_1150/lr0.0001_run2
Created eval split with 10000 samples

[INFO] Training conventional MLP
[INFO] Logging mode: epoch_based
…
Current working directory: /storage/ssd1/ArthurLee/Mediatek_research/hourglass-proj/code/hourglass
Current working directory: /storage/ssd1/ArthurLee/Mediatek_research/hourglass-proj/code/hourglass
Current working directory: /storage/ssd1/ArthurLee/Mediatek_research/hourglass-proj/code/hourglass
Current working directory: /storage/ssd1/ArthurLee/Mediatek_research/hourglass-proj/code/hourglass
Current working directory: /storage/ssd1/ArthurLee/Mediatek_research/hourglass-proj/code/hourglass
cuda:6
Initialize Win to Identity matrix
cuda:6
cuda:6
Initialize Win to Identity matrix
Set W_in to non-trianable
cuda:6
cuda:6
Set W_in to non-trianable
ConventionalMLP(
  (in_fc): Linear(in_features=784, out_features=784, bias=False)
  (blocks): ModuleList(
    (0-9): 10 x MLPBlockReLU(
      (norm): BatchNorm1d(784, eps=1e-05, momentum=0.1, affine=False, track_running_stats=True)
      (fc1): Linear(in_features=784, out_features=1150, bias=False)
      (act): ReLU()
      (fc2): Linear(in_features=1150, out_features=784, bias=False)
      (skip_add): SkipAdd()
    )
  )
  (out_fc): Linear(in_features=784, out_features=784, bias=False)
)
Total parameters: 19,261,312
Trainable parameters: 19,261,312
Training with W_in matrix!
Experiment directory: ./results/mnist_denoising_std0.25/bs128_ep100/conventional_w_Win_19261312/latent784_hidden1150_1150_1150_1150_1150_1150_1150_1150_1150_1150/lr0.001_run2
ConventionalMLP(
  (in_fc): Linear(in_features=784, out_features=784, bias=False)
  (blocks): ModuleList(
    (0-9): 10 x MLPBlockReLU(
      (norm): BatchNorm1d(784, eps=1e-05, momentum=0.1, affine=False, track_running_stats=True)
      (fc1): Linear(in_features=784, out_features=1150, bias=False)
      (act): ReLU()
      (fc2): Linear(in_features=1150, out_features=784, bias=False)
      (skip_add): SkipAdd()
    )
  )
  (out_fc): Linear(in_features=784, out_features=784, bias=False)
)
Total parameters: 19,261,312
Trainable parameters: 19,261,312
Training with W_in matrix!
Experiment directory: ./results/mnist_denoising_std0.25/bs128_ep100/conventional_w_Win_I_19261312/latent784_hidden1150_1150_1150_1150_1150_1150_1150_1150_1150_1150/lr0.001_run2
Created train split with 50000 samples
ConventionalMLP(
  (in_fc): Linear(in_features=784, out_features=784, bias=False)
  (blocks): ModuleList(
    (0-9): 10 x MLPBlockReLU(
      (norm): BatchNorm1d(784, eps=1e-05, momentum=0.1, affine=False, track_running_stats=True)
      (fc1): Linear(in_features=784, out_features=1150, bias=False)
      (act): ReLU()
      (fc2): Linear(in_features=1150, out_features=784, bias=False)
      (skip_add): SkipAdd()
    )
  )
  (out_fc): Linear(in_features=784, out_features=784, bias=False)
)
Total parameters: 19,261,312
Trainable parameters: 18,646,656
Training with W_in matrix!
Experiment directory: ./results/mnist_denoising_std0.25/bs128_ep100/conventional_w_Win_fix_I_18646656/latent784_hidden1150_1150_1150_1150_1150_1150_1150_1150_1150_1150/lr0.001_run2
Created eval split with 10000 samples
Created train split with 50000 samples

[INFO] Training conventional MLP
[INFO] Logging mode: epoch_based
[INFO] Linear LR Decay (epoch-based): 0.001 -> 0.0 over 100 epochs
Created train split with 50000 samples
ConventionalMLP(
  (blocks): ModuleList(
    (0-9): 10 x MLPBlockReLU(
      (norm): BatchNorm1d(784, eps=1e-05, momentum=0.1, affine=False, track_running_stats=True)
      (fc1): Linear(in_features=784, out_features=1150, bias=False)
      (act): ReLU()
      (fc2): Linear(in_features=1150, out_features=784, bias=False)
      (skip_add): SkipAdd()
    )
  )
  (out_fc): Linear(in_features=784, out_features=784, bias=False)
)
Total parameters: 18,646,656
Trainable parameters: 18,646,656
Training with no W_in matrix!
Experiment directory: ./results/mnist_denoising_std0.25/bs128_ep100/conventional_wo_Win_18646656/latent784_hidden1150_1150_1150_1150_1150_1150_1150_1150_1150_1150/lr0.001_run2
Created eval split with 10000 samples

[INFO] Training conventional MLP
[INFO] Logging mode: epoch_based
[INFO] Linear LR Decay (epoch-based): 0.001 -> 0.0 over 100 epochs
Created eval split with 10000 samples
Created train split with 50000 samples

[INFO] Training conventional MLP
[INFO] Logging mode: epoch_based
[INFO] Linear LR Decay (epoch-based): 0.001 -> 0.0 over 100 epochs
Created eval split with 10000 samples

[INFO] Training conventional MLP
[INFO] Logging mode: epoch_based
[INFO] Linear LR Decay (epoch-based): 0.001 -> 0.0 over 100 epochs
ConventionalMLP(
  (in_fc): Linear(in_features=784, out_features=784, bias=False)
  (blocks): ModuleList(
    (0-9): 10 x MLPBlockReLU(
      (norm): BatchNorm1d(784, eps=1e-05, momentum=0.1, affine=False, track_running_stats=True)
      (fc1): Linear(in_features=784, out_features=1150, bias=False)
      (act): ReLU()
      (fc2): Linear(in_features=1150, out_features=784, bias=False)
      (skip_add): SkipAdd()
    )
  )
  (out_fc): Linear(in_features=784, out_features=784, bias=False)
)
Total parameters: 19,261,312
Trainable parameters: 18,646,656
Training with W_in matrix!
Experiment directory: ./results/mnist_denoising_std0.25/bs128_ep100/conventional_w_Win_fix_18646656/latent784_hidden1150_1150_1150_1150_1150_1150_1150_1150_1150_1150/lr0.001_run2
Created train split with 50000 samples
Created eval split with 10000 samples

[INFO] Training conventional MLP
…
