…
Current working directory: /storage/ssd1/ArthurLee/Mediatek_research/hourglass-proj/code/hourglassCurrent working directory: /storage/ssd1/ArthurLee/Mediatek_research/hourglass-proj/code/hourglass

Current working directory: /storage/ssd1/ArthurLee/Mediatek_research/hourglass-proj/code/hourglass
Current working directory: /storage/ssd1/ArthurLee/Mediatek_research/hourglass-proj/code/hourglass
Current working directory: /storage/ssd1/ArthurLee/Mediatek_research/hourglass-proj/code/hourglass
cuda:6
Initialize Win to Identity matrix
cuda:6
Initialize Win to Identity matrix
Set W_in to non-trianable
ConventionalMLP(
  (in_fc): Linear(in_features=784, out_features=784, bias=False)
  (blocks): ModuleList(
    (0-3): 4 x MLPBlockReLU(
      (norm): BatchNorm1d(784, eps=1e-05, momentum=0.1, affine=False, track_running_stats=True)
      (fc1): Linear(in_features=784, out_features=1150, bias=False)
      (act): ReLU()
      (fc2): Linear(in_features=1150, out_features=784, bias=False)
      (skip_add): SkipAdd()
    )
  )
  (out_fc): Linear(in_features=784, out_features=784, bias=False)
)
Total parameters: 8,442,112
Trainable parameters: 8,442,112
Training with W_in matrix!
Experiment directory: ./results/mnist_denoising_std0.25/bs128_ep100/conventional_w_Win_I_8442112/latent784_hidden1150_1150_1150_1150/lr5e-05_run1
Traceback (most recent call last):
  File "/storage/ssd1/ArthurLee/Mediatek_research/hourglass-proj/code/hourglass/run.py", line 228, in <module>
    main()
  File "/storage/ssd1/ArthurLee/Mediatek_research/hourglass-proj/code/hourglass/run.py", line 152, in main
    raise ValueError(f"Dupicated experiment: [{exp_dir}] already exist and contains summary json file!")
ValueError: Dupicated experiment: [./results/mnist_denoising_std0.25/bs128_ep100/conventional_w_Win_I_8442112/latent784_hidden1150_1150_1150_1150/lr5e-05_run1] already exist and contains summary json file!
cuda:6
Set W_in to non-trianable
cuda:6
ConventionalMLP(
  (in_fc): Linear(in_features=784, out_features=784, bias=False)
  (blocks): ModuleList(
    (0-3): 4 x MLPBlockReLU(
      (norm): BatchNorm1d(784, eps=1e-05, momentum=0.1, affine=False, track_running_stats=True)
      (fc1): Linear(in_features=784, out_features=1150, bias=False)
      (act): ReLU()
      (fc2): Linear(in_features=1150, out_features=784, bias=False)
      (skip_add): SkipAdd()
    )
  )
  (out_fc): Linear(in_features=784, out_features=784, bias=False)
)
Total parameters: 8,442,112
Trainable parameters: 7,827,456
Training with W_in matrix!
Experiment directory: ./results/mnist_denoising_std0.25/bs128_ep100/conventional_w_Win_fix_I_7827456/latent784_hidden1150_1150_1150_1150/lr5e-05_run1
Traceback (most recent call last):
  File "/storage/ssd1/ArthurLee/Mediatek_research/hourglass-proj/code/hourglass/run.py", line 228, in <module>
    main()
  File "/storage/ssd1/ArthurLee/Mediatek_research/hourglass-proj/code/hourglass/run.py", line 152, in main
    raise ValueError(f"Dupicated experiment: [{exp_dir}] already exist and contains summary json file!")
ValueError: Dupicated experiment: [./results/mnist_denoising_std0.25/bs128_ep100/conventional_w_Win_fix_I_7827456/latent784_hidden1150_1150_1150_1150/lr5e-05_run1] already exist and contains summary json file!
cuda:6
ConventionalMLP(
  (in_fc): Linear(in_features=784, out_features=784, bias=False)
  (blocks): ModuleList(
    (0-3): 4 x MLPBlockReLU(
      (norm): BatchNorm1d(784, eps=1e-05, momentum=0.1, affine=False, track_running_stats=True)
      (fc1): Linear(in_features=784, out_features=1150, bias=False)
      (act): ReLU()
      (fc2): Linear(in_features=1150, out_features=784, bias=False)
      (skip_add): SkipAdd()
    )
  )
  (out_fc): Linear(in_features=784, out_features=784, bias=False)
)
Total parameters: 8,442,112
Trainable parameters: 8,442,112
Training with W_in matrix!
Experiment directory: ./results/mnist_denoising_std0.25/bs128_ep100/conventional_w_Win_8442112/latent784_hidden1150_1150_1150_1150/lr5e-05_run1
Traceback (most recent call last):
  File "/storage/ssd1/ArthurLee/Mediatek_research/hourglass-proj/code/hourglass/run.py", line 228, in <module>
    main()
  File "/storage/ssd1/ArthurLee/Mediatek_research/hourglass-proj/code/hourglass/run.py", line 152, in main
    raise ValueError(f"Dupicated experiment: [{exp_dir}] already exist and contains summary json file!")
ValueError: Dupicated experiment: [./results/mnist_denoising_std0.25/bs128_ep100/conventional_w_Win_8442112/latent784_hidden1150_1150_1150_1150/lr5e-05_run1] already exist and contains summary json file!
ConventionalMLP(
  (in_fc): Linear(in_features=784, out_features=784, bias=False)
  (blocks): ModuleList(
    (0-3): 4 x MLPBlockReLU(
      (norm): BatchNorm1d(784, eps=1e-05, momentum=0.1, affine=False, track_running_stats=True)
      (fc1): Linear(in_features=784, out_features=1150, bias=False)
      (act): ReLU()
      (fc2): Linear(in_features=1150, out_features=784, bias=False)
      (skip_add): SkipAdd()
    )
  )
  (out_fc): Linear(in_features=784, out_features=784, bias=False)
)
Total parameters: 8,442,112
Trainable parameters: 7,827,456
Training with W_in matrix!
Experiment directory: ./results/mnist_denoising_std0.25/bs128_ep100/conventional_w_Win_fix_7827456/latent784_hidden1150_1150_1150_1150/lr5e-05_run1
Traceback (most recent call last):
  File "/storage/ssd1/ArthurLee/Mediatek_research/hourglass-proj/code/hourglass/run.py", line 228, in <module>
…
  File "/storage/ssd1/ArthurLee/Mediatek_research/hourglass-proj/code/hourglass/run.py", line 228, in <module>
    main()
  File "/storage/ssd1/ArthurLee/Mediatek_research/hourglass-proj/code/hourglass/run.py", line 152, in main
    raise ValueError(f"Dupicated experiment: [{exp_dir}] already exist and contains summary json file!")
ValueError: Dupicated experiment: [./results/mnist_denoising_std0.25/bs128_ep100/conventional_w_Win_8442112/latent784_hidden1150_1150_1150_1150/lr0.0001_run1] already exist and contains summary json file!
ConventionalMLP(
  (blocks): ModuleList(
    (0-3): 4 x MLPBlockReLU(
      (norm): BatchNorm1d(784, eps=1e-05, momentum=0.1, affine=False, track_running_stats=True)
      (fc1): Linear(in_features=784, out_features=1150, bias=False)
      (act): ReLU()
      (fc2): Linear(in_features=1150, out_features=784, bias=False)
      (skip_add): SkipAdd()
    )
  )
  (out_fc): Linear(in_features=784, out_features=784, bias=False)
)
Total parameters: 7,827,456
Trainable parameters: 7,827,456
Training with no W_in matrix!
Experiment directory: ./results/mnist_denoising_std0.25/bs128_ep100/conventional_wo_Win_7827456/latent784_hidden1150_1150_1150_1150/lr0.0001_run1
Traceback (most recent call last):
  File "/storage/ssd1/ArthurLee/Mediatek_research/hourglass-proj/code/hourglass/run.py", line 228, in <module>
    main()
  File "/storage/ssd1/ArthurLee/Mediatek_research/hourglass-proj/code/hourglass/run.py", line 152, in main
    raise ValueError(f"Dupicated experiment: [{exp_dir}] already exist and contains summary json file!")
ValueError: Dupicated experiment: [./results/mnist_denoising_std0.25/bs128_ep100/conventional_wo_Win_7827456/latent784_hidden1150_1150_1150_1150/lr0.0001_run1] already exist and contains summary json file!
ConventionalMLP(
  (in_fc): Linear(in_features=784, out_features=784, bias=False)
  (blocks): ModuleList(
    (0-3): 4 x MLPBlockReLU(
      (norm): BatchNorm1d(784, eps=1e-05, momentum=0.1, affine=False, track_running_stats=True)
      (fc1): Linear(in_features=784, out_features=1150, bias=False)
      (act): ReLU()
      (fc2): Linear(in_features=1150, out_features=784, bias=False)
      (skip_add): SkipAdd()
    )
  )
  (out_fc): Linear(in_features=784, out_features=784, bias=False)
)
Total parameters: 8,442,112
Trainable parameters: 7,827,456
Training with W_in matrix!
Experiment directory: ./results/mnist_denoising_std0.25/bs128_ep100/conventional_w_Win_fix_I_7827456/latent784_hidden1150_1150_1150_1150/lr0.0001_run1
Traceback (most recent call last):
  File "/storage/ssd1/ArthurLee/Mediatek_research/hourglass-proj/code/hourglass/run.py", line 228, in <module>
…
Current working directory: /storage/ssd1/ArthurLee/Mediatek_research/hourglass-proj/code/hourglass
Current working directory: /storage/ssd1/ArthurLee/Mediatek_research/hourglass-proj/code/hourglass
Current working directory: /storage/ssd1/ArthurLee/Mediatek_research/hourglass-proj/code/hourglass
Current working directory: /storage/ssd1/ArthurLee/Mediatek_research/hourglass-proj/code/hourglass
Current working directory: /storage/ssd1/ArthurLee/Mediatek_research/hourglass-proj/code/hourglass
cuda:6
Set W_in to non-trianable
cuda:6
Initialize Win to Identity matrix
Set W_in to non-trianable
cuda:6
Initialize Win to Identity matrix
cuda:6
cuda:6
ConventionalMLP(
  (in_fc): Linear(in_features=784, out_features=784, bias=False)
  (blocks): ModuleList(
    (0-3): 4 x MLPBlockReLU(
      (norm): BatchNorm1d(784, eps=1e-05, momentum=0.1, affine=False, track_running_stats=True)
      (fc1): Linear(in_features=784, out_features=1150, bias=False)
      (act): ReLU()
      (fc2): Linear(in_features=1150, out_features=784, bias=False)
      (skip_add): SkipAdd()
    )
  )
  (out_fc): Linear(in_features=784, out_features=784, bias=False)
)
Total parameters: 8,442,112
Trainable parameters: 7,827,456
Training with W_in matrix!
Experiment directory: ./results/mnist_denoising_std0.25/bs128_ep100/conventional_w_Win_fix_7827456/latent784_hidden1150_1150_1150_1150/lr0.001_run1
Traceback (most recent call last):
  File "/storage/ssd1/ArthurLee/Mediatek_research/hourglass-proj/code/hourglass/run.py", line 228, in <module>
    main()
  File "/storage/ssd1/ArthurLee/Mediatek_research/hourglass-proj/code/hourglass/run.py", line 152, in main
    raise ValueError(f"Dupicated experiment: [{exp_dir}] already exist and contains summary json file!")
ValueError: Dupicated experiment: [./results/mnist_denoising_std0.25/bs128_ep100/conventional_w_Win_fix_7827456/latent784_hidden1150_1150_1150_1150/lr0.001_run1] already exist and contains summary json file!
ConventionalMLP(
  (in_fc): Linear(in_features=784, out_features=784, bias=False)
  (blocks): ModuleList(
    (0-3): 4 x MLPBlockReLU(
      (norm): BatchNorm1d(784, eps=1e-05, momentum=0.1, affine=False, track_running_stats=True)
      (fc1): Linear(in_features=784, out_features=1150, bias=False)
      (act): ReLU()
      (fc2): Linear(in_features=1150, out_features=784, bias=False)
      (skip_add): SkipAdd()
    )
  )
  (out_fc): Linear(in_features=784, out_features=784, bias=False)
)
Total parameters: 8,442,112
Trainable parameters: 7,827,456
Training with W_in matrix!
Experiment directory: ./results/mnist_denoising_std0.25/bs128_ep100/conventional_w_Win_fix_I_7827456/latent784_hidden1150_1150_1150_1150/lr0.001_run1
Traceback (most recent call last):
  File "/storage/ssd1/ArthurLee/Mediatek_research/hourglass-proj/code/hourglass/run.py", line 228, in <module>
    main()
  File "/storage/ssd1/ArthurLee/Mediatek_research/hourglass-proj/code/hourglass/run.py", line 152, in main
    raise ValueError(f"Dupicated experiment: [{exp_dir}] already exist and contains summary json file!")
ValueError: Dupicated experiment: [./results/mnist_denoising_std0.25/bs128_ep100/conventional_w_Win_fix_I_7827456/latent784_hidden1150_1150_1150_1150/lr0.001_run1] already exist and contains summary json file!
ConventionalMLP(
  (in_fc): Linear(in_features=784, out_features=784, bias=False)
  (blocks): ModuleList(
    (0-3): 4 x MLPBlockReLU(
      (norm): BatchNorm1d(784, eps=1e-05, momentum=0.1, affine=False, track_running_stats=True)
      (fc1): Linear(in_features=784, out_features=1150, bias=False)
      (act): ReLU()
      (fc2): Linear(in_features=1150, out_features=784, bias=False)
      (skip_add): SkipAdd()
    )
  )
  (out_fc): Linear(in_features=784, out_features=784, bias=False)
)
Total parameters: 8,442,112
Trainable parameters: 8,442,112
Training with W_in matrix!
Experiment directory: ./results/mnist_denoising_std0.25/bs128_ep100/conventional_w_Win_I_8442112/latent784_hidden1150_1150_1150_1150/lr0.001_run1
Traceback (most recent call last):
  File "/storage/ssd1/ArthurLee/Mediatek_research/hourglass-proj/code/hourglass/run.py", line 228, in <module>
    main()
  File "/storage/ssd1/ArthurLee/Mediatek_research/hourglass-proj/code/hourglass/run.py", line 152, in main
    raise ValueError(f"Dupicated experiment: [{exp_dir}] already exist and contains summary json file!")
ValueError: Dupicated experiment: [./results/mnist_denoising_std0.25/bs128_ep100/conventional_w_Win_I_8442112/latent784_hidden1150_1150_1150_1150/lr0.001_run1] already exist and contains summary json file!
ConventionalMLP(
  (in_fc): Linear(in_features=784, out_features=784, bias=False)
  (blocks): ModuleList(
    (0-3): 4 x MLPBlockReLU(
      (norm): BatchNorm1d(784, eps=1e-05, momentum=0.1, affine=False, track_running_stats=True)
      (fc1): Linear(in_features=784, out_features=1150, bias=False)
      (act): ReLU()
      (fc2): Linear(in_features=1150, out_features=784, bias=False)
      (skip_add): SkipAdd()
    )
  )
  (out_fc): Linear(in_features=784, out_features=784, bias=False)
)
Total parameters: 8,442,112
Trainable parameters: 8,442,112
Training with W_in matrix!
Experiment directory: ./results/mnist_denoising_std0.25/bs128_ep100/conventional_w_Win_8442112/latent784_hidden1150_1150_1150_1150/lr0.001_run1
Traceback (most recent call last):
  File "/storage/ssd1/ArthurLee/Mediatek_research/hourglass-proj/code/hourglass/run.py", line 228, in <module>
…
Traceback (most recent call last):
  File "/storage/ssd1/ArthurLee/Mediatek_research/hourglass-proj/code/hourglass/run.py", line 228, in <module>
    main()
  File "/storage/ssd1/ArthurLee/Mediatek_research/hourglass-proj/code/hourglass/run.py", line 152, in main
    raise ValueError(f"Dupicated experiment: [{exp_dir}] already exist and contains summary json file!")
ValueError: Dupicated experiment: [./results/mnist_denoising_std0.25/bs128_ep100/conventional_w_Win_I_8442112/latent784_hidden1150_1150_1150_1150/lr0.0001_run2] already exist and contains summary json file!
cuda:6
Set W_in to non-trianable
ConventionalMLP(
  (in_fc): Linear(in_features=784, out_features=784, bias=False)
  (blocks): ModuleList(
    (0-3): 4 x MLPBlockReLU(
      (norm): BatchNorm1d(784, eps=1e-05, momentum=0.1, affine=False, track_running_stats=True)
      (fc1): Linear(in_features=784, out_features=1150, bias=False)
      (act): ReLU()
      (fc2): Linear(in_features=1150, out_features=784, bias=False)
      (skip_add): SkipAdd()
    )
  )
  (out_fc): Linear(in_features=784, out_features=784, bias=False)
)
Total parameters: 8,442,112
Trainable parameters: 7,827,456
Training with W_in matrix!
Experiment directory: ./results/mnist_denoising_std0.25/bs128_ep100/conventional_w_Win_fix_I_7827456/latent784_hidden1150_1150_1150_1150/lr0.0001_run2
Traceback (most recent call last):
  File "/storage/ssd1/ArthurLee/Mediatek_research/hourglass-proj/code/hourglass/run.py", line 228, in <module>
    main()
  File "/storage/ssd1/ArthurLee/Mediatek_research/hourglass-proj/code/hourglass/run.py", line 152, in main
    raise ValueError(f"Dupicated experiment: [{exp_dir}] already exist and contains summary json file!")
ValueError: Dupicated experiment: [./results/mnist_denoising_std0.25/bs128_ep100/conventional_w_Win_fix_I_7827456/latent784_hidden1150_1150_1150_1150/lr0.0001_run2] already exist and contains summary json file!
ConventionalMLP(
  (in_fc): Linear(in_features=784, out_features=784, bias=False)
  (blocks): ModuleList(
    (0-3): 4 x MLPBlockReLU(
      (norm): BatchNorm1d(784, eps=1e-05, momentum=0.1, affine=False, track_running_stats=True)
      (fc1): Linear(in_features=784, out_features=1150, bias=False)
      (act): ReLU()
      (fc2): Linear(in_features=1150, out_features=784, bias=False)
      (skip_add): SkipAdd()
    )
  )
  (out_fc): Linear(in_features=784, out_features=784, bias=False)
)
Total parameters: 8,442,112
Trainable parameters: 7,827,456
Training with W_in matrix!
Experiment directory: ./results/mnist_denoising_std0.25/bs128_ep100/conventional_w_Win_fix_7827456/latent784_hidden1150_1150_1150_1150/lr0.0001_run2
Traceback (most recent call last):
  File "/storage/ssd1/ArthurLee/Mediatek_research/hourglass-proj/code/hourglass/run.py", line 228, in <module>
…
