…
Current working directory: /storage/ssd1/ArthurLee/Mediatek_research/hourglass-proj/code/hourglass
Current working directory: /storage/ssd1/ArthurLee/Mediatek_research/hourglass-proj/code/hourglass
Current working directory: /storage/ssd1/ArthurLee/Mediatek_research/hourglass-proj/code/hourglass
Current working directory: /storage/ssd1/ArthurLee/Mediatek_research/hourglass-proj/code/hourglass
Current working directory: /storage/ssd1/ArthurLee/Mediatek_research/hourglass-proj/code/hourglass
cuda:0
Set W_in to non-trianable
cuda:0
cuda:0
Initialize Win to Identity matrix
Initialize Win to Identity matrix
Set W_in to non-trianable
cuda:0
cuda:0
ConventionalMLP(
  (in_fc): Linear(in_features=3072, out_features=3072, bias=False)
  (blocks): ModuleList(
    (0-7): 8 x MLPBlockReLU(
      (norm): BatchNorm1d(3072, eps=1e-05, momentum=0.1, affine=False, track_running_stats=True)
      (fc1): Linear(in_features=3072, out_features=3546, bias=False)
      (act): ReLU()
      (fc2): Linear(in_features=3546, out_features=3072, bias=False)
      (skip_add): SkipAdd()
    )
  )
  (out_fc): Linear(in_features=3072, out_features=3072, bias=False)
)
Total parameters: 193,167,360
Trainable parameters: 183,730,176
Training with W_in matrix!
Experiment directory: ./results/imagenet32_denoising_std0.25/bs512_ep2/conventional_w_Win_fix_I_183730176/latent3072_hidden3546_3546_3546_3546_3546_3546_3546_3546/lr0.0001_run1
Loading ImageNet-32 training data...
  Loading batch 1...
ConventionalMLP(
  (in_fc): Linear(in_features=3072, out_features=3072, bias=False)
  (blocks): ModuleList(
    (0-7): 8 x MLPBlockReLU(
      (norm): BatchNorm1d(3072, eps=1e-05, momentum=0.1, affine=False, track_running_stats=True)
      (fc1): Linear(in_features=3072, out_features=3546, bias=False)
      (act): ReLU()
      (fc2): Linear(in_features=3546, out_features=3072, bias=False)
      (skip_add): SkipAdd()
    )
  )
  (out_fc): Linear(in_features=3072, out_features=3072, bias=False)
)
Total parameters: 193,167,360
Trainable parameters: 193,167,360
Training with W_in matrix!
Experiment directory: ./results/imagenet32_denoising_std0.25/bs512_ep2/conventional_w_Win_I_193167360/latent3072_hidden3546_3546_3546_3546_3546_3546_3546_3546/lr0.0001_run1
Loading ImageNet-32 training data...
  Loading batch 1...
ConventionalMLP(
  (in_fc): Linear(in_features=3072, out_features=3072, bias=False)
  (blocks): ModuleList(
    (0-7): 8 x MLPBlockReLU(
      (norm): BatchNorm1d(3072, eps=1e-05, momentum=0.1, affine=False, track_running_stats=True)
      (fc1): Linear(in_features=3072, out_features=3546, bias=False)
      (act): ReLU()
      (fc2): Linear(in_features=3546, out_features=3072, bias=False)
      (skip_add): SkipAdd()
    )
  )
  (out_fc): Linear(in_features=3072, out_features=3072, bias=False)
)
Total parameters: 193,167,360
Trainable parameters: 183,730,176
Training with W_in matrix!
Experiment directory: ./results/imagenet32_denoising_std0.25/bs512_ep2/conventional_w_Win_fix_183730176/latent3072_hidden3546_3546_3546_3546_3546_3546_3546_3546/lr0.0001_run1
Loading ImageNet-32 training data...
  Loading batch 1...
ConventionalMLP(
  (blocks): ModuleList(
    (0-7): 8 x MLPBlockReLU(
      (norm): BatchNorm1d(3072, eps=1e-05, momentum=0.1, affine=False, track_running_stats=True)
      (fc1): Linear(in_features=3072, out_features=3546, bias=False)
      (act): ReLU()
      (fc2): Linear(in_features=3546, out_features=3072, bias=False)
      (skip_add): SkipAdd()
    )
  )
  (out_fc): Linear(in_features=3072, out_features=3072, bias=False)
)
Total parameters: 183,730,176
Trainable parameters: 183,730,176
Training with no W_in matrix!
Experiment directory: ./results/imagenet32_denoising_std0.25/bs512_ep2/conventional_wo_Win_183730176/latent3072_hidden3546_3546_3546_3546_3546_3546_3546_3546/lr0.0001_run1
Loading ImageNet-32 training data...
  Loading batch 1...
ConventionalMLP(
  (in_fc): Linear(in_features=3072, out_features=3072, bias=False)
  (blocks): ModuleList(
    (0-7): 8 x MLPBlockReLU(
      (norm): BatchNorm1d(3072, eps=1e-05, momentum=0.1, affine=False, track_running_stats=True)
      (fc1): Linear(in_features=3072, out_features=3546, bias=False)
      (act): ReLU()
      (fc2): Linear(in_features=3546, out_features=3072, bias=False)
      (skip_add): SkipAdd()
    )
  )
  (out_fc): Linear(in_features=3072, out_features=3072, bias=False)
)
Total parameters: 193,167,360
Trainable parameters: 193,167,360
Training with W_in matrix!
Experiment directory: ./results/imagenet32_denoising_std0.25/bs512_ep2/conventional_w_Win_193167360/latent3072_hidden3546_3546_3546_3546_3546_3546_3546_3546/lr0.0001_run1
Loading ImageNet-32 training data...
  Loading batch 1...
  Loading batch 2...
  Loading batch 2...
…
Current working directory: /storage/ssd1/ArthurLee/Mediatek_research/hourglass-proj/code/hourglass
Current working directory: /storage/ssd1/ArthurLee/Mediatek_research/hourglass-proj/code/hourglass
Current working directory: /storage/ssd1/ArthurLee/Mediatek_research/hourglass-proj/code/hourglass
Current working directory: /storage/ssd1/ArthurLee/Mediatek_research/hourglass-proj/code/hourglass
cuda:0
cuda:0
cuda:0
Initialize Win to Identity matrix
cuda:0
Set W_in to non-trianable
Set W_in to non-trianable
cuda:0
Initialize Win to Identity matrix
ConventionalMLP(
  (blocks): ModuleList(
    (0-7): 8 x MLPBlockReLU(
      (norm): BatchNorm1d(3072, eps=1e-05, momentum=0.1, affine=False, track_running_stats=True)
      (fc1): Linear(in_features=3072, out_features=3546, bias=False)
      (act): ReLU()
      (fc2): Linear(in_features=3546, out_features=3072, bias=False)
      (skip_add): SkipAdd()
    )
  )
  (out_fc): Linear(in_features=3072, out_features=3072, bias=False)
)
Total parameters: 183,730,176
Trainable parameters: 183,730,176
Training with no W_in matrix!
Experiment directory: ./results/imagenet32_denoising_std0.25/bs512_ep2/conventional_wo_Win_183730176/latent3072_hidden3546_3546_3546_3546_3546_3546_3546_3546/lr0.0003_run1
Loading ImageNet-32 training data...
  Loading batch 1...
ConventionalMLP(
  (in_fc): Linear(in_features=3072, out_features=3072, bias=False)
  (blocks): ModuleList(
    (0-7): 8 x MLPBlockReLU(
      (norm): BatchNorm1d(3072, eps=1e-05, momentum=0.1, affine=False, track_running_stats=True)
      (fc1): Linear(in_features=3072, out_features=3546, bias=False)
      (act): ReLU()
      (fc2): Linear(in_features=3546, out_features=3072, bias=False)
      (skip_add): SkipAdd()
    )
  )
  (out_fc): Linear(in_features=3072, out_features=3072, bias=False)
)
Total parameters: 193,167,360
Trainable parameters: 193,167,360
Training with W_in matrix!
Experiment directory: ./results/imagenet32_denoising_std0.25/bs512_ep2/conventional_w_Win_193167360/latent3072_hidden3546_3546_3546_3546_3546_3546_3546_3546/lr0.0003_run1
Loading ImageNet-32 training data...
  Loading batch 1...
ConventionalMLP(
  (in_fc): Linear(in_features=3072, out_features=3072, bias=False)
  (blocks): ModuleList(
    (0-7): 8 x MLPBlockReLU(
      (norm): BatchNorm1d(3072, eps=1e-05, momentum=0.1, affine=False, track_running_stats=True)
      (fc1): Linear(in_features=3072, out_features=3546, bias=False)
      (act): ReLU()
      (fc2): Linear(in_features=3546, out_features=3072, bias=False)
      (skip_add): SkipAdd()
    )
  )
  (out_fc): Linear(in_features=3072, out_features=3072, bias=False)
)
Total parameters: 193,167,360
Trainable parameters: 183,730,176
Training with W_in matrix!
Experiment directory: ./results/imagenet32_denoising_std0.25/bs512_ep2/conventional_w_Win_fix_I_183730176/latent3072_hidden3546_3546_3546_3546_3546_3546_3546_3546/lr0.0003_run1
Loading ImageNet-32 training data...
  Loading batch 1...
ConventionalMLP(
  (in_fc): Linear(in_features=3072, out_features=3072, bias=False)
  (blocks): ModuleList(
    (0-7): 8 x MLPBlockReLU(
      (norm): BatchNorm1d(3072, eps=1e-05, momentum=0.1, affine=False, track_running_stats=True)
      (fc1): Linear(in_features=3072, out_features=3546, bias=False)
      (act): ReLU()
      (fc2): Linear(in_features=3546, out_features=3072, bias=False)
      (skip_add): SkipAdd()
    )
  )
  (out_fc): Linear(in_features=3072, out_features=3072, bias=False)
)
Total parameters: 193,167,360
Trainable parameters: 193,167,360
Training with W_in matrix!
Experiment directory: ./results/imagenet32_denoising_std0.25/bs512_ep2/conventional_w_Win_I_193167360/latent3072_hidden3546_3546_3546_3546_3546_3546_3546_3546/lr0.0003_run1
Loading ImageNet-32 training data...
  Loading batch 1...
ConventionalMLP(
  (in_fc): Linear(in_features=3072, out_features=3072, bias=False)
  (blocks): ModuleList(
    (0-7): 8 x MLPBlockReLU(
      (norm): BatchNorm1d(3072, eps=1e-05, momentum=0.1, affine=False, track_running_stats=True)
      (fc1): Linear(in_features=3072, out_features=3546, bias=False)
      (act): ReLU()
      (fc2): Linear(in_features=3546, out_features=3072, bias=False)
      (skip_add): SkipAdd()
    )
  )
  (out_fc): Linear(in_features=3072, out_features=3072, bias=False)
)
Total parameters: 193,167,360
Trainable parameters: 183,730,176
Training with W_in matrix!
Experiment directory: ./results/imagenet32_denoising_std0.25/bs512_ep2/conventional_w_Win_fix_183730176/latent3072_hidden3546_3546_3546_3546_3546_3546_3546_3546/lr0.0003_run1
Loading ImageNet-32 training data...
  Loading batch 1...
  Loading batch 2...
  Loading batch 2...
…
Current working directory: /storage/ssd1/ArthurLee/Mediatek_research/hourglass-proj/code/hourglass
Current working directory: /storage/ssd1/ArthurLee/Mediatek_research/hourglass-proj/code/hourglass
Current working directory: /storage/ssd1/ArthurLee/Mediatek_research/hourglass-proj/code/hourglass
Current working directory: /storage/ssd1/ArthurLee/Mediatek_research/hourglass-proj/code/hourglass
Current working directory: /storage/ssd1/ArthurLee/Mediatek_research/hourglass-proj/code/hourglass
cuda:0
cuda:0
cuda:0
Initialize Win to Identity matrix
cuda:0
cuda:0
Initialize Win to Identity matrix
Set W_in to non-trianable
Set W_in to non-trianable
ConventionalMLP(
  (in_fc): Linear(in_features=3072, out_features=3072, bias=False)
  (blocks): ModuleList(
    (0-7): 8 x MLPBlockReLU(
      (norm): BatchNorm1d(3072, eps=1e-05, momentum=0.1, affine=False, track_running_stats=True)
      (fc1): Linear(in_features=3072, out_features=3546, bias=False)
      (act): ReLU()
      (fc2): Linear(in_features=3546, out_features=3072, bias=False)
      (skip_add): SkipAdd()
    )
  )
  (out_fc): Linear(in_features=3072, out_features=3072, bias=False)
)
Total parameters: 193,167,360
Trainable parameters: 193,167,360
Training with W_in matrix!
Experiment directory: ./results/imagenet32_denoising_std0.25/bs512_ep2/conventional_w_Win_193167360/latent3072_hidden3546_3546_3546_3546_3546_3546_3546_3546/lr0.0001_run2
Loading ImageNet-32 training data...
  Loading batch 1...
ConventionalMLP(
  (blocks): ModuleList(
    (0-7): 8 x MLPBlockReLU(
      (norm): BatchNorm1d(3072, eps=1e-05, momentum=0.1, affine=False, track_running_stats=True)
      (fc1): Linear(in_features=3072, out_features=3546, bias=False)
      (act): ReLU()
      (fc2): Linear(in_features=3546, out_features=3072, bias=False)
      (skip_add): SkipAdd()
    )
  )
  (out_fc): Linear(in_features=3072, out_features=3072, bias=False)
)
Total parameters: 183,730,176
Trainable parameters: 183,730,176
Training with no W_in matrix!
Experiment directory: ./results/imagenet32_denoising_std0.25/bs512_ep2/conventional_wo_Win_183730176/latent3072_hidden3546_3546_3546_3546_3546_3546_3546_3546/lr0.0001_run2
Loading ImageNet-32 training data...
  Loading batch 1...
ConventionalMLP(
  (in_fc): Linear(in_features=3072, out_features=3072, bias=False)
  (blocks): ModuleList(
    (0-7): 8 x MLPBlockReLU(
      (norm): BatchNorm1d(3072, eps=1e-05, momentum=0.1, affine=False, track_running_stats=True)
      (fc1): Linear(in_features=3072, out_features=3546, bias=False)
      (act): ReLU()
      (fc2): Linear(in_features=3546, out_features=3072, bias=False)
      (skip_add): SkipAdd()
    )
  )
  (out_fc): Linear(in_features=3072, out_features=3072, bias=False)
)
Total parameters: 193,167,360
Trainable parameters: 193,167,360
Training with W_in matrix!
Experiment directory: ./results/imagenet32_denoising_std0.25/bs512_ep2/conventional_w_Win_I_193167360/latent3072_hidden3546_3546_3546_3546_3546_3546_3546_3546/lr0.0001_run2
Loading ImageNet-32 training data...
  Loading batch 1...
ConventionalMLP(
  (in_fc): Linear(in_features=3072, out_features=3072, bias=False)
  (blocks): ModuleList(
    (0-7): 8 x MLPBlockReLU(
      (norm): BatchNorm1d(3072, eps=1e-05, momentum=0.1, affine=False, track_running_stats=True)
      (fc1): Linear(in_features=3072, out_features=3546, bias=False)
      (act): ReLU()
      (fc2): Linear(in_features=3546, out_features=3072, bias=False)
      (skip_add): SkipAdd()
    )
  )
  (out_fc): Linear(in_features=3072, out_features=3072, bias=False)
)
Total parameters: 193,167,360
Trainable parameters: 183,730,176
Training with W_in matrix!
Experiment directory: ./results/imagenet32_denoising_std0.25/bs512_ep2/conventional_w_Win_fix_183730176/latent3072_hidden3546_3546_3546_3546_3546_3546_3546_3546/lr0.0001_run2
Loading ImageNet-32 training data...
  Loading batch 1...
ConventionalMLP(
  (in_fc): Linear(in_features=3072, out_features=3072, bias=False)
  (blocks): ModuleList(
    (0-7): 8 x MLPBlockReLU(
      (norm): BatchNorm1d(3072, eps=1e-05, momentum=0.1, affine=False, track_running_stats=True)
      (fc1): Linear(in_features=3072, out_features=3546, bias=False)
      (act): ReLU()
      (fc2): Linear(in_features=3546, out_features=3072, bias=False)
      (skip_add): SkipAdd()
    )
  )
  (out_fc): Linear(in_features=3072, out_features=3072, bias=False)
)
Total parameters: 193,167,360
Trainable parameters: 183,730,176
Training with W_in matrix!
Experiment directory: ./results/imagenet32_denoising_std0.25/bs512_ep2/conventional_w_Win_fix_I_183730176/latent3072_hidden3546_3546_3546_3546_3546_3546_3546_3546/lr0.0001_run2
Loading ImageNet-32 training data...
  Loading batch 1...
  Loading batch 2...
  Loading batch 2...
…
