…
==========================================
Current working directory: /storage/ssd1/ArthurLee/Mediatek_research/hourglass-proj/code/hourglass
Current working directory: /storage/ssd1/ArthurLee/Mediatek_research/hourglass-proj/code/hourglass
Current working directory: /storage/ssd1/ArthurLee/Mediatek_research/hourglass-proj/code/hourglass
Current working directory: /storage/ssd1/ArthurLee/Mediatek_research/hourglass-proj/code/hourglass
Current working directory: /storage/ssd1/ArthurLee/Mediatek_research/hourglass-proj/code/hourglass
cuda:2
ConventionalMLP(
  (blocks): ModuleList(
    (0): MLPBlockReLU(
      (norm): BatchNorm1d(784, eps=1e-05, momentum=0.1, affine=False, track_running_stats=True)
      (fc1): Linear(in_features=784, out_features=1150, bias=False)
      (act): ReLU()
      (fc2): Linear(in_features=1150, out_features=784, bias=False)
      (skip_add): SkipAdd()
    )
  )
  (out_fc): Linear(in_features=784, out_features=784, bias=False)
)
Total parameters: 2,417,856
Trainable parameters: 2,417,856
Training with no W_in matrix!
Experiment directory: ./results/mnist_generative_classification/bs128_ep200_aug2/conventional_wo_Win_2417856/latent784_hidden1150/lr5e-05_run1
cuda:2
Initialize Win to Identity matrix
Created train split with 50000 samples
Created eval split with 10000 samples

[INFO] Training conventional MLP
[INFO] Logging mode: epoch_based
[INFO] Linear LR Decay (epoch-based): 5e-05 -> 0.0 over 200 epochs
cuda:2
Set W_in to non-trianable
cuda:2
cuda:2
Initialize Win to Identity matrix
Set W_in to non-trianable
ConventionalMLP(
  (in_fc): Linear(in_features=784, out_features=784, bias=False)
  (blocks): ModuleList(
    (0): MLPBlockReLU(
      (norm): BatchNorm1d(784, eps=1e-05, momentum=0.1, affine=False, track_running_stats=True)
      (fc1): Linear(in_features=784, out_features=1150, bias=False)
      (act): ReLU()
      (fc2): Linear(in_features=1150, out_features=784, bias=False)
      (skip_add): SkipAdd()
    )
  )
  (out_fc): Linear(in_features=784, out_features=784, bias=False)
)
Total parameters: 3,032,512
Trainable parameters: 3,032,512
Training with W_in matrix!
Experiment directory: ./results/mnist_generative_classification/bs128_ep200_aug2/conventional_w_Win_I_3032512/latent784_hidden1150/lr5e-05_run1
Created train split with 50000 samples
Created eval split with 10000 samples

[INFO] Training conventional MLP
[INFO] Logging mode: epoch_based
[INFO] Linear LR Decay (epoch-based): 5e-05 -> 0.0 over 200 epochs
ConventionalMLP(
  (in_fc): Linear(in_features=784, out_features=784, bias=False)
  (blocks): ModuleList(
    (0): MLPBlockReLU(
      (norm): BatchNorm1d(784, eps=1e-05, momentum=0.1, affine=False, track_running_stats=True)
      (fc1): Linear(in_features=784, out_features=1150, bias=False)
      (act): ReLU()
      (fc2): Linear(in_features=1150, out_features=784, bias=False)
      (skip_add): SkipAdd()
    )
  )
  (out_fc): Linear(in_features=784, out_features=784, bias=False)
)
Total parameters: 3,032,512
Trainable parameters: 2,417,856
Training with W_in matrix!
Experiment directory: ./results/mnist_generative_classification/bs128_ep200_aug2/conventional_w_Win_fix_2417856/latent784_hidden1150/lr5e-05_run1
ConventionalMLP(
  (in_fc): Linear(in_features=784, out_features=784, bias=False)
  (blocks): ModuleList(
    (0): MLPBlockReLU(
      (norm): BatchNorm1d(784, eps=1e-05, momentum=0.1, affine=False, track_running_stats=True)
      (fc1): Linear(in_features=784, out_features=1150, bias=False)
      (act): ReLU()
      (fc2): Linear(in_features=1150, out_features=784, bias=False)
      (skip_add): SkipAdd()
    )
  )
  (out_fc): Linear(in_features=784, out_features=784, bias=False)
)
Total parameters: 3,032,512
Trainable parameters: 3,032,512
Training with W_in matrix!
Experiment directory: ./results/mnist_generative_classification/bs128_ep200_aug2/conventional_w_Win_3032512/latent784_hidden1150/lr5e-05_run1
Created train split with 50000 samples
Created train split with 50000 samples
Created eval split with 10000 samples
Created eval split with 10000 samples
ConventionalMLP(
  (in_fc): Linear(in_features=784, out_features=784, bias=False)
  (blocks): ModuleList(
    (0): MLPBlockReLU(
      (norm): BatchNorm1d(784, eps=1e-05, momentum=0.1, affine=False, track_running_stats=True)
      (fc1): Linear(in_features=784, out_features=1150, bias=False)
      (act): ReLU()
      (fc2): Linear(in_features=1150, out_features=784, bias=False)
      (skip_add): SkipAdd()
    )
  )
  (out_fc): Linear(in_features=784, out_features=784, bias=False)
)
Total parameters: 3,032,512
Trainable parameters: 2,417,856
Training with W_in matrix!
Experiment directory: ./results/mnist_generative_classification/bs128_ep200_aug2/conventional_w_Win_fix_I_2417856/latent784_hidden1150/lr5e-05_run1

[INFO] Training conventional MLP
[INFO] Logging mode: epoch_based
[INFO] Linear LR Decay (epoch-based): 5e-05 -> 0.0 over 200 epochs
…
Completed all exp for lr=5e-4
==========================================
Current working directory: /storage/ssd1/ArthurLee/Mediatek_research/hourglass-proj/code/hourglass
Current working directory: /storage/ssd1/ArthurLee/Mediatek_research/hourglass-proj/code/hourglass
Current working directory: /storage/ssd1/ArthurLee/Mediatek_research/hourglass-proj/code/hourglass
Current working directory: /storage/ssd1/ArthurLee/Mediatek_research/hourglass-proj/code/hourglass
Current working directory: /storage/ssd1/ArthurLee/Mediatek_research/hourglass-proj/code/hourglass
cuda:2
Set W_in to non-trianable
ConventionalMLP(
  (in_fc): Linear(in_features=784, out_features=784, bias=False)
  (blocks): ModuleList(
    (0): MLPBlockReLU(
      (norm): BatchNorm1d(784, eps=1e-05, momentum=0.1, affine=False, track_running_stats=True)
      (fc1): Linear(in_features=784, out_features=1150, bias=False)
      (act): ReLU()
      (fc2): Linear(in_features=1150, out_features=784, bias=False)
      (skip_add): SkipAdd()
    )
  )
  (out_fc): Linear(in_features=784, out_features=784, bias=False)
)
Total parameters: 3,032,512
Trainable parameters: 2,417,856
Training with W_in matrix!
Experiment directory: ./results/mnist_generative_classification/bs128_ep200_aug2/conventional_w_Win_fix_2417856/latent784_hidden1150/lr0.0005_run1
cuda:2
Initialize Win to Identity matrix
cuda:2
Created train split with 50000 samples
cuda:2
Created eval split with 10000 samples
cuda:2
Initialize Win to Identity matrix
Set W_in to non-trianable

[INFO] Training conventional MLP
[INFO] Logging mode: epoch_based
[INFO] Linear LR Decay (epoch-based): 0.0005 -> 0.0 over 200 epochs
ConventionalMLP(
  (blocks): ModuleList(
    (0): MLPBlockReLU(
      (norm): BatchNorm1d(784, eps=1e-05, momentum=0.1, affine=False, track_running_stats=True)
      (fc1): Linear(in_features=784, out_features=1150, bias=False)
      (act): ReLU()
      (fc2): Linear(in_features=1150, out_features=784, bias=False)
      (skip_add): SkipAdd()
    )
  )
  (out_fc): Linear(in_features=784, out_features=784, bias=False)
)
Total parameters: 2,417,856
Trainable parameters: 2,417,856
Training with no W_in matrix!
Experiment directory: ./results/mnist_generative_classification/bs128_ep200_aug2/conventional_wo_Win_2417856/latent784_hidden1150/lr0.0005_run1
ConventionalMLP(
  (in_fc): Linear(in_features=784, out_features=784, bias=False)
  (blocks): ModuleList(
    (0): MLPBlockReLU(
      (norm): BatchNorm1d(784, eps=1e-05, momentum=0.1, affine=False, track_running_stats=True)
      (fc1): Linear(in_features=784, out_features=1150, bias=False)
      (act): ReLU()
      (fc2): Linear(in_features=1150, out_features=784, bias=False)
      (skip_add): SkipAdd()
    )
  )
  (out_fc): Linear(in_features=784, out_features=784, bias=False)
)
Total parameters: 3,032,512
Trainable parameters: 3,032,512
Training with W_in matrix!
Experiment directory: ./results/mnist_generative_classification/bs128_ep200_aug2/conventional_w_Win_I_3032512/latent784_hidden1150/lr0.0005_run1
ConventionalMLP(
  (in_fc): Linear(in_features=784, out_features=784, bias=False)
  (blocks): ModuleList(
    (0): MLPBlockReLU(
      (norm): BatchNorm1d(784, eps=1e-05, momentum=0.1, affine=False, track_running_stats=True)
      (fc1): Linear(in_features=784, out_features=1150, bias=False)
      (act): ReLU()
      (fc2): Linear(in_features=1150, out_features=784, bias=False)
      (skip_add): SkipAdd()
    )
  )
  (out_fc): Linear(in_features=784, out_features=784, bias=False)
)
Total parameters: 3,032,512
Trainable parameters: 3,032,512
Training with W_in matrix!
Experiment directory: ./results/mnist_generative_classification/bs128_ep200_aug2/conventional_w_Win_3032512/latent784_hidden1150/lr0.0005_run1
Created train split with 50000 samples
Created train split with 50000 samples
Created train split with 50000 samples
Created eval split with 10000 samples
Created eval split with 10000 samples
ConventionalMLP(
  (in_fc): Linear(in_features=784, out_features=784, bias=False)
  (blocks): ModuleList(
    (0): MLPBlockReLU(
      (norm): BatchNorm1d(784, eps=1e-05, momentum=0.1, affine=False, track_running_stats=True)
      (fc1): Linear(in_features=784, out_features=1150, bias=False)
      (act): ReLU()
      (fc2): Linear(in_features=1150, out_features=784, bias=False)
      (skip_add): SkipAdd()
    )
  )
  (out_fc): Linear(in_features=784, out_features=784, bias=False)
)
Total parameters: 3,032,512
Trainable parameters: 2,417,856
Training with W_in matrix!
Experiment directory: ./results/mnist_generative_classification/bs128_ep200_aug2/conventional_w_Win_fix_I_2417856/latent784_hidden1150/lr0.0005_run1

[INFO] Training conventional MLP
[INFO] Logging mode: epoch_based
[INFO] Linear LR Decay (epoch-based): 0.0005 -> 0.0 over 200 epochs
…
Current working directory: /storage/ssd1/ArthurLee/Mediatek_research/hourglass-proj/code/hourglass
Current working directory: /storage/ssd1/ArthurLee/Mediatek_research/hourglass-proj/code/hourglass
Current working directory: /storage/ssd1/ArthurLee/Mediatek_research/hourglass-proj/code/hourglassCurrent working directory: /storage/ssd1/ArthurLee/Mediatek_research/hourglass-proj/code/hourglass

Current working directory: /storage/ssd1/ArthurLee/Mediatek_research/hourglass-proj/code/hourglass
cuda:2
cuda:2
cuda:2
Set W_in to non-trianable
cuda:2
Initialize Win to Identity matrix
Set W_in to non-trianable
cuda:2
Initialize Win to Identity matrix
ConventionalMLP(
  (in_fc): Linear(in_features=784, out_features=784, bias=False)
  (blocks): ModuleList(
    (0): MLPBlockReLU(
      (norm): BatchNorm1d(784, eps=1e-05, momentum=0.1, affine=False, track_running_stats=True)
      (fc1): Linear(in_features=784, out_features=1150, bias=False)
      (act): ReLU()
      (fc2): Linear(in_features=1150, out_features=784, bias=False)
      (skip_add): SkipAdd()
    )
  )
  (out_fc): Linear(in_features=784, out_features=784, bias=False)
)
Total parameters: 3,032,512
Trainable parameters: 3,032,512
Training with W_in matrix!
Experiment directory: ./results/mnist_generative_classification/bs128_ep200_aug2/conventional_w_Win_3032512/latent784_hidden1150/lr0.0005_run1
Traceback (most recent call last):
  File "/storage/ssd1/ArthurLee/Mediatek_research/hourglass-proj/code/hourglass/run.py", line 224, in <module>
    main()
  File "/storage/ssd1/ArthurLee/Mediatek_research/hourglass-proj/code/hourglass/run.py", line 152, in main
    raise ValueError(f"Dupicated experiment: [{exp_dir}] already exist and contains summary json file!")
ValueError: Dupicated experiment: [./results/mnist_generative_classification/bs128_ep200_aug2/conventional_w_Win_3032512/latent784_hidden1150/lr0.0005_run1] already exist and contains summary json file!
ConventionalMLP(
  (blocks): ModuleList(
    (0): MLPBlockReLU(
      (norm): BatchNorm1d(784, eps=1e-05, momentum=0.1, affine=False, track_running_stats=True)
      (fc1): Linear(in_features=784, out_features=1150, bias=False)
      (act): ReLU()
      (fc2): Linear(in_features=1150, out_features=784, bias=False)
      (skip_add): SkipAdd()
    )
  )
  (out_fc): Linear(in_features=784, out_features=784, bias=False)
)
Total parameters: 2,417,856
Trainable parameters: 2,417,856
Training with no W_in matrix!
Experiment directory: ./results/mnist_generative_classification/bs128_ep200_aug2/conventional_wo_Win_2417856/latent784_hidden1150/lr0.0005_run1
Traceback (most recent call last):
  File "/storage/ssd1/ArthurLee/Mediatek_research/hourglass-proj/code/hourglass/run.py", line 224, in <module>
    main()
  File "/storage/ssd1/ArthurLee/Mediatek_research/hourglass-proj/code/hourglass/run.py", line 152, in main
    raise ValueError(f"Dupicated experiment: [{exp_dir}] already exist and contains summary json file!")
ValueError: Dupicated experiment: [./results/mnist_generative_classification/bs128_ep200_aug2/conventional_wo_Win_2417856/latent784_hidden1150/lr0.0005_run1] already exist and contains summary json file!
ConventionalMLP(
  (in_fc): Linear(in_features=784, out_features=784, bias=False)
  (blocks): ModuleList(
    (0): MLPBlockReLU(
      (norm): BatchNorm1d(784, eps=1e-05, momentum=0.1, affine=False, track_running_stats=True)
      (fc1): Linear(in_features=784, out_features=1150, bias=False)
      (act): ReLU()
      (fc2): Linear(in_features=1150, out_features=784, bias=False)
      (skip_add): SkipAdd()
    )
  )
  (out_fc): Linear(in_features=784, out_features=784, bias=False)
)
Total parameters: 3,032,512
Trainable parameters: 2,417,856
Training with W_in matrix!
Experiment directory: ./results/mnist_generative_classification/bs128_ep200_aug2/conventional_w_Win_fix_2417856/latent784_hidden1150/lr0.0005_run1
Traceback (most recent call last):
  File "/storage/ssd1/ArthurLee/Mediatek_research/hourglass-proj/code/hourglass/run.py", line 224, in <module>
    main()
  File "/storage/ssd1/ArthurLee/Mediatek_research/hourglass-proj/code/hourglass/run.py", line 152, in main
    raise ValueError(f"Dupicated experiment: [{exp_dir}] already exist and contains summary json file!")
ValueError: Dupicated experiment: [./results/mnist_generative_classification/bs128_ep200_aug2/conventional_w_Win_fix_2417856/latent784_hidden1150/lr0.0005_run1] already exist and contains summary json file!
ConventionalMLP(
  (in_fc): Linear(in_features=784, out_features=784, bias=False)
  (blocks): ModuleList(
    (0): MLPBlockReLU(
      (norm): BatchNorm1d(784, eps=1e-05, momentum=0.1, affine=False, track_running_stats=True)
      (fc1): Linear(in_features=784, out_features=1150, bias=False)
      (act): ReLU()
      (fc2): Linear(in_features=1150, out_features=784, bias=False)
      (skip_add): SkipAdd()
    )
  )
  (out_fc): Linear(in_features=784, out_features=784, bias=False)
)
Total parameters: 3,032,512
Trainable parameters: 2,417,856
Training with W_in matrix!
Experiment directory: ./results/mnist_generative_classification/bs128_ep200_aug2/conventional_w_Win_fix_I_2417856/latent784_hidden1150/lr0.0005_run1
Traceback (most recent call last):
  File "/storage/ssd1/ArthurLee/Mediatek_research/hourglass-proj/code/hourglass/run.py", line 224, in <module>
    main()
  File "/storage/ssd1/ArthurLee/Mediatek_research/hourglass-proj/code/hourglass/run.py", line 152, in main
    raise ValueError(f"Dupicated experiment: [{exp_dir}] already exist and contains summary json file!")
ValueError: Dupicated experiment: [./results/mnist_generative_classification/bs128_ep200_aug2/conventional_w_Win_fix_I_2417856/latent784_hidden1150/lr0.0005_run1] already exist and contains summary json file!
ConventionalMLP(
  (in_fc): Linear(in_features=784, out_features=784, bias=False)
  (blocks): ModuleList(
    (0): MLPBlockReLU(
      (norm): BatchNorm1d(784, eps=1e-05, momentum=0.1, affine=False, track_running_stats=True)
      (fc1): Linear(in_features=784, out_features=1150, bias=False)
      (act): ReLU()
      (fc2): Linear(in_features=1150, out_features=784, bias=False)
      (skip_add): SkipAdd()
    )
  )
  (out_fc): Linear(in_features=784, out_features=784, bias=False)
)
Total parameters: 3,032,512
Trainable parameters: 3,032,512
Training with W_in matrix!
Experiment directory: ./results/mnist_generative_classification/bs128_ep200_aug2/conventional_w_Win_I_3032512/latent784_hidden1150/lr0.0005_run1
Traceback (most recent call last):
  File "/storage/ssd1/ArthurLee/Mediatek_research/hourglass-proj/code/hourglass/run.py", line 224, in <module>
…
Current working directory: /storage/ssd1/ArthurLee/Mediatek_research/hourglass-proj/code/hourglass
Current working directory: /storage/ssd1/ArthurLee/Mediatek_research/hourglass-proj/code/hourglassCurrent working directory: /storage/ssd1/ArthurLee/Mediatek_research/hourglass-proj/code/hourglass

Current working directory: /storage/ssd1/ArthurLee/Mediatek_research/hourglass-proj/code/hourglass
Current working directory: /storage/ssd1/ArthurLee/Mediatek_research/hourglass-proj/code/hourglass
cuda:2
Set W_in to non-trianable
cuda:2
Initialize Win to Identity matrix
cuda:2
Initialize Win to Identity matrix
Set W_in to non-trianable
cuda:2
ConventionalMLP(
  (in_fc): Linear(in_features=784, out_features=784, bias=False)
  (blocks): ModuleList(
    (0): MLPBlockReLU(
      (norm): BatchNorm1d(784, eps=1e-05, momentum=0.1, affine=False, track_running_stats=True)
      (fc1): Linear(in_features=784, out_features=1150, bias=False)
      (act): ReLU()
      (fc2): Linear(in_features=1150, out_features=784, bias=False)
      (skip_add): SkipAdd()
    )
  )
  (out_fc): Linear(in_features=784, out_features=784, bias=False)
)
Total parameters: 3,032,512
Trainable parameters: 2,417,856
Training with W_in matrix!
Experiment directory: ./results/mnist_generative_classification/bs128_ep200_aug2/conventional_w_Win_fix_2417856/latent784_hidden1150/lr5e-05_run2
Created train split with 50000 samples
cuda:2
Created eval split with 10000 samples
ConventionalMLP(
  (in_fc): Linear(in_features=784, out_features=784, bias=False)
  (blocks): ModuleList(
    (0): MLPBlockReLU(
      (norm): BatchNorm1d(784, eps=1e-05, momentum=0.1, affine=False, track_running_stats=True)
      (fc1): Linear(in_features=784, out_features=1150, bias=False)
      (act): ReLU()
      (fc2): Linear(in_features=1150, out_features=784, bias=False)
      (skip_add): SkipAdd()
    )
  )
  (out_fc): Linear(in_features=784, out_features=784, bias=False)
)
Total parameters: 3,032,512
Trainable parameters: 3,032,512
Training with W_in matrix!
Experiment directory: ./results/mnist_generative_classification/bs128_ep200_aug2/conventional_w_Win_I_3032512/latent784_hidden1150/lr5e-05_run2

[INFO] Training conventional MLP
[INFO] Logging mode: epoch_based
[INFO] Linear LR Decay (epoch-based): 5e-05 -> 0.0 over 200 epochs
Created train split with 50000 samples
Created eval split with 10000 samples

[INFO] Training conventional MLP
[INFO] Logging mode: epoch_based
[INFO] Linear LR Decay (epoch-based): 5e-05 -> 0.0 over 200 epochs
ConventionalMLP(
  (blocks): ModuleList(
    (0): MLPBlockReLU(
      (norm): BatchNorm1d(784, eps=1e-05, momentum=0.1, affine=False, track_running_stats=True)
      (fc1): Linear(in_features=784, out_features=1150, bias=False)
      (act): ReLU()
      (fc2): Linear(in_features=1150, out_features=784, bias=False)
      (skip_add): SkipAdd()
    )
  )
  (out_fc): Linear(in_features=784, out_features=784, bias=False)
)
Total parameters: 2,417,856
Trainable parameters: 2,417,856
Training with no W_in matrix!
Experiment directory: ./results/mnist_generative_classification/bs128_ep200_aug2/conventional_wo_Win_2417856/latent784_hidden1150/lr5e-05_run2
ConventionalMLP(
  (in_fc): Linear(in_features=784, out_features=784, bias=False)
  (blocks): ModuleList(
    (0): MLPBlockReLU(
      (norm): BatchNorm1d(784, eps=1e-05, momentum=0.1, affine=False, track_running_stats=True)
      (fc1): Linear(in_features=784, out_features=1150, bias=False)
      (act): ReLU()
      (fc2): Linear(in_features=1150, out_features=784, bias=False)
      (skip_add): SkipAdd()
    )
  )
  (out_fc): Linear(in_features=784, out_features=784, bias=False)
)
Total parameters: 3,032,512
Trainable parameters: 2,417,856
Training with W_in matrix!
Experiment directory: ./results/mnist_generative_classification/bs128_ep200_aug2/conventional_w_Win_fix_I_2417856/latent784_hidden1150/lr5e-05_run2
Created train split with 50000 samples
Created train split with 50000 samples
Created eval split with 10000 samples
Created eval split with 10000 samples

[INFO] Training conventional MLP
[INFO] Logging mode: epoch_based
[INFO] Linear LR Decay (epoch-based): 5e-05 -> 0.0 over 200 epochs

[INFO] Training conventional MLP
[INFO] Logging mode: epoch_based
[INFO] Linear LR Decay (epoch-based): 5e-05 -> 0.0 over 200 epochs
ConventionalMLP(
  (in_fc): Linear(in_features=784, out_features=784, bias=False)
  (blocks): ModuleList(
    (0): MLPBlockReLU(
      (norm): BatchNorm1d(784, eps=1e-05, momentum=0.1, affine=False, track_running_stats=True)
      (fc1): Linear(in_features=784, out_features=1150, bias=False)
      (act): ReLU()
      (fc2): Linear(in_features=1150, out_features=784, bias=False)
      (skip_add): SkipAdd()
    )
  )
  (out_fc): Linear(in_features=784, out_features=784, bias=False)
)
Total parameters: 3,032,512
Trainable parameters: 3,032,512
Training with W_in matrix!
Experiment directory: ./results/mnist_generative_classification/bs128_ep200_aug2/conventional_w_Win_3032512/latent784_hidden1150/lr5e-05_run2
Created train split with 50000 samples
Created eval split with 10000 samples

[INFO] Training conventional MLP
[INFO] Logging mode: epoch_based
…
Current working directory: /storage/ssd1/ArthurLee/Mediatek_research/hourglass-proj/code/hourglass
Current working directory: /storage/ssd1/ArthurLee/Mediatek_research/hourglass-proj/code/hourglass
Current working directory: /storage/ssd1/ArthurLee/Mediatek_research/hourglass-proj/code/hourglass
Current working directory: /storage/ssd1/ArthurLee/Mediatek_research/hourglass-proj/code/hourglass
Current working directory: /storage/ssd1/ArthurLee/Mediatek_research/hourglass-proj/code/hourglass
cuda:2
cuda:2
Set W_in to non-trianable
cuda:2
Initialize Win to Identity matrix
Set W_in to non-trianable
cuda:2
Initialize Win to Identity matrix
ConventionalMLP(
  (in_fc): Linear(in_features=784, out_features=784, bias=False)
  (blocks): ModuleList(
    (0): MLPBlockReLU(
      (norm): BatchNorm1d(784, eps=1e-05, momentum=0.1, affine=False, track_running_stats=True)
      (fc1): Linear(in_features=784, out_features=1150, bias=False)
      (act): ReLU()
      (fc2): Linear(in_features=1150, out_features=784, bias=False)
      (skip_add): SkipAdd()
    )
  )
  (out_fc): Linear(in_features=784, out_features=784, bias=False)
)
Total parameters: 3,032,512
Trainable parameters: 3,032,512
Training with W_in matrix!
Experiment directory: ./results/mnist_generative_classification/bs128_ep200_aug2/conventional_w_Win_3032512/latent784_hidden1150/lr0.0001_run2
cuda:2
Created train split with 50000 samples
ConventionalMLP(
  (in_fc): Linear(in_features=784, out_features=784, bias=False)
  (blocks): ModuleList(
    (0): MLPBlockReLU(
      (norm): BatchNorm1d(784, eps=1e-05, momentum=0.1, affine=False, track_running_stats=True)
      (fc1): Linear(in_features=784, out_features=1150, bias=False)
      (act): ReLU()
      (fc2): Linear(in_features=1150, out_features=784, bias=False)
      (skip_add): SkipAdd()
    )
  )
  (out_fc): Linear(in_features=784, out_features=784, bias=False)
)
Total parameters: 3,032,512
Trainable parameters: 2,417,856
Training with W_in matrix!
Experiment directory: ./results/mnist_generative_classification/bs128_ep200_aug2/conventional_w_Win_fix_2417856/latent784_hidden1150/lr0.0001_run2
Created eval split with 10000 samples

[INFO] Training conventional MLP
[INFO] Logging mode: epoch_based
[INFO] Linear LR Decay (epoch-based): 0.0001 -> 0.0 over 200 epochs
ConventionalMLP(
  (in_fc): Linear(in_features=784, out_features=784, bias=False)
  (blocks): ModuleList(
    (0): MLPBlockReLU(
      (norm): BatchNorm1d(784, eps=1e-05, momentum=0.1, affine=False, track_running_stats=True)
      (fc1): Linear(in_features=784, out_features=1150, bias=False)
      (act): ReLU()
      (fc2): Linear(in_features=1150, out_features=784, bias=False)
      (skip_add): SkipAdd()
    )
  )
  (out_fc): Linear(in_features=784, out_features=784, bias=False)
)
Total parameters: 3,032,512
Trainable parameters: 2,417,856
Training with W_in matrix!
Experiment directory: ./results/mnist_generative_classification/bs128_ep200_aug2/conventional_w_Win_fix_I_2417856/latent784_hidden1150/lr0.0001_run2
Created train split with 50000 samples
ConventionalMLP(
  (in_fc): Linear(in_features=784, out_features=784, bias=False)
  (blocks): ModuleList(
    (0): MLPBlockReLU(
      (norm): BatchNorm1d(784, eps=1e-05, momentum=0.1, affine=False, track_running_stats=True)
      (fc1): Linear(in_features=784, out_features=1150, bias=False)
      (act): ReLU()
      (fc2): Linear(in_features=1150, out_features=784, bias=False)
      (skip_add): SkipAdd()
    )
  )
  (out_fc): Linear(in_features=784, out_features=784, bias=False)
)
Total parameters: 3,032,512
Trainable parameters: 3,032,512
Training with W_in matrix!
Experiment directory: ./results/mnist_generative_classification/bs128_ep200_aug2/conventional_w_Win_I_3032512/latent784_hidden1150/lr0.0001_run2
Created train split with 50000 samples
Created eval split with 10000 samples
Created train split with 50000 samples

[INFO] Training conventional MLP
…
Current working directory: /storage/ssd1/ArthurLee/Mediatek_research/hourglass-proj/code/hourglass
Current working directory: /storage/ssd1/ArthurLee/Mediatek_research/hourglass-proj/code/hourglass
Current working directory: /storage/ssd1/ArthurLee/Mediatek_research/hourglass-proj/code/hourglass
Current working directory: /storage/ssd1/ArthurLee/Mediatek_research/hourglass-proj/code/hourglass
Current working directory: /storage/ssd1/ArthurLee/Mediatek_research/hourglass-proj/code/hourglass
cuda:2
cuda:2
Initialize Win to Identity matrix
cuda:2
cuda:2
Initialize Win to Identity matrix
Set W_in to non-trianable
cuda:2
Set W_in to non-trianable
ConventionalMLP(
  (in_fc): Linear(in_features=784, out_features=784, bias=False)
  (blocks): ModuleList(
    (0): MLPBlockReLU(
      (norm): BatchNorm1d(784, eps=1e-05, momentum=0.1, affine=False, track_running_stats=True)
      (fc1): Linear(in_features=784, out_features=1150, bias=False)
      (act): ReLU()
      (fc2): Linear(in_features=1150, out_features=784, bias=False)
      (skip_add): SkipAdd()
    )
  )
  (out_fc): Linear(in_features=784, out_features=784, bias=False)
)
Total parameters: 3,032,512
Trainable parameters: 3,032,512
Training with W_in matrix!
Experiment directory: ./results/mnist_generative_classification/bs128_ep200_aug2/conventional_w_Win_3032512/latent784_hidden1150/lr0.0005_run2
Traceback (most recent call last):
  File "/storage/ssd1/ArthurLee/Mediatek_research/hourglass-proj/code/hourglass/run.py", line 224, in <module>
    main()
  File "/storage/ssd1/ArthurLee/Mediatek_research/hourglass-proj/code/hourglass/run.py", line 152, in main
    raise ValueError(f"Dupicated experiment: [{exp_dir}] already exist and contains summary json file!")
ValueError: Dupicated experiment: [./results/mnist_generative_classification/bs128_ep200_aug2/conventional_w_Win_3032512/latent784_hidden1150/lr0.0005_run2] already exist and contains summary json file!
ConventionalMLP(
  (in_fc): Linear(in_features=784, out_features=784, bias=False)
  (blocks): ModuleList(
    (0): MLPBlockReLU(
      (norm): BatchNorm1d(784, eps=1e-05, momentum=0.1, affine=False, track_running_stats=True)
      (fc1): Linear(in_features=784, out_features=1150, bias=False)
      (act): ReLU()
      (fc2): Linear(in_features=1150, out_features=784, bias=False)
      (skip_add): SkipAdd()
    )
  )
  (out_fc): Linear(in_features=784, out_features=784, bias=False)
)
Total parameters: 3,032,512
Trainable parameters: 3,032,512
Training with W_in matrix!
Experiment directory: ./results/mnist_generative_classification/bs128_ep200_aug2/conventional_w_Win_I_3032512/latent784_hidden1150/lr0.0005_run2
Traceback (most recent call last):
  File "/storage/ssd1/ArthurLee/Mediatek_research/hourglass-proj/code/hourglass/run.py", line 224, in <module>
    main()
  File "/storage/ssd1/ArthurLee/Mediatek_research/hourglass-proj/code/hourglass/run.py", line 152, in main
    raise ValueError(f"Dupicated experiment: [{exp_dir}] already exist and contains summary json file!")
ValueError: Dupicated experiment: [./results/mnist_generative_classification/bs128_ep200_aug2/conventional_w_Win_I_3032512/latent784_hidden1150/lr0.0005_run2] already exist and contains summary json file!
ConventionalMLP(
  (blocks): ModuleList(
    (0): MLPBlockReLU(
      (norm): BatchNorm1d(784, eps=1e-05, momentum=0.1, affine=False, track_running_stats=True)
      (fc1): Linear(in_features=784, out_features=1150, bias=False)
      (act): ReLU()
      (fc2): Linear(in_features=1150, out_features=784, bias=False)
      (skip_add): SkipAdd()
    )
  )
  (out_fc): Linear(in_features=784, out_features=784, bias=False)
)
Total parameters: 2,417,856
Trainable parameters: 2,417,856
Training with no W_in matrix!
Experiment directory: ./results/mnist_generative_classification/bs128_ep200_aug2/conventional_wo_Win_2417856/latent784_hidden1150/lr0.0005_run2
Traceback (most recent call last):
  File "/storage/ssd1/ArthurLee/Mediatek_research/hourglass-proj/code/hourglass/run.py", line 224, in <module>
    main()
  File "/storage/ssd1/ArthurLee/Mediatek_research/hourglass-proj/code/hourglass/run.py", line 152, in main
    raise ValueError(f"Dupicated experiment: [{exp_dir}] already exist and contains summary json file!")
ValueError: Dupicated experiment: [./results/mnist_generative_classification/bs128_ep200_aug2/conventional_wo_Win_2417856/latent784_hidden1150/lr0.0005_run2] already exist and contains summary json file!
ConventionalMLP(
  (in_fc): Linear(in_features=784, out_features=784, bias=False)
  (blocks): ModuleList(
    (0): MLPBlockReLU(
      (norm): BatchNorm1d(784, eps=1e-05, momentum=0.1, affine=False, track_running_stats=True)
      (fc1): Linear(in_features=784, out_features=1150, bias=False)
      (act): ReLU()
      (fc2): Linear(in_features=1150, out_features=784, bias=False)
      (skip_add): SkipAdd()
    )
  )
  (out_fc): Linear(in_features=784, out_features=784, bias=False)
)
Total parameters: 3,032,512
Trainable parameters: 2,417,856
Training with W_in matrix!
Experiment directory: ./results/mnist_generative_classification/bs128_ep200_aug2/conventional_w_Win_fix_I_2417856/latent784_hidden1150/lr0.0005_run2
Traceback (most recent call last):
  File "/storage/ssd1/ArthurLee/Mediatek_research/hourglass-proj/code/hourglass/run.py", line 224, in <module>
    main()
  File "/storage/ssd1/ArthurLee/Mediatek_research/hourglass-proj/code/hourglass/run.py", line 152, in main
    raise ValueError(f"Dupicated experiment: [{exp_dir}] already exist and contains summary json file!")
ValueError: Dupicated experiment: [./results/mnist_generative_classification/bs128_ep200_aug2/conventional_w_Win_fix_I_2417856/latent784_hidden1150/lr0.0005_run2] already exist and contains summary json file!
ConventionalMLP(
  (in_fc): Linear(in_features=784, out_features=784, bias=False)
  (blocks): ModuleList(
    (0): MLPBlockReLU(
      (norm): BatchNorm1d(784, eps=1e-05, momentum=0.1, affine=False, track_running_stats=True)
      (fc1): Linear(in_features=784, out_features=1150, bias=False)
      (act): ReLU()
      (fc2): Linear(in_features=1150, out_features=784, bias=False)
      (skip_add): SkipAdd()
    )
  )
  (out_fc): Linear(in_features=784, out_features=784, bias=False)
)
Total parameters: 3,032,512
Trainable parameters: 2,417,856
Training with W_in matrix!
Experiment directory: ./results/mnist_generative_classification/bs128_ep200_aug2/conventional_w_Win_fix_2417856/latent784_hidden1150/lr0.0005_run2
Traceback (most recent call last):
  File "/storage/ssd1/ArthurLee/Mediatek_research/hourglass-proj/code/hourglass/run.py", line 224, in <module>
…
Current working directory: /storage/ssd1/ArthurLee/Mediatek_research/hourglass-proj/code/hourglass
Current working directory: /storage/ssd1/ArthurLee/Mediatek_research/hourglass-proj/code/hourglass
Current working directory: /storage/ssd1/ArthurLee/Mediatek_research/hourglass-proj/code/hourglass
Current working directory: /storage/ssd1/ArthurLee/Mediatek_research/hourglass-proj/code/hourglass
Current working directory: /storage/ssd1/ArthurLee/Mediatek_research/hourglass-proj/code/hourglass
cuda:2
cuda:2
Initialize Win to Identity matrix
cuda:2
Initialize Win to Identity matrix
Set W_in to non-trianable
cuda:2
Set W_in to non-trianable
ConventionalMLP(
  (in_fc): Linear(in_features=784, out_features=784, bias=False)
  (blocks): ModuleList(
    (0): MLPBlockReLU(
      (norm): BatchNorm1d(784, eps=1e-05, momentum=0.1, affine=False, track_running_stats=True)
      (fc1): Linear(in_features=784, out_features=1150, bias=False)
      (act): ReLU()
      (fc2): Linear(in_features=1150, out_features=784, bias=False)
      (skip_add): SkipAdd()
    )
  )
  (out_fc): Linear(in_features=784, out_features=784, bias=False)
)
Total parameters: 3,032,512
Trainable parameters: 3,032,512
Training with W_in matrix!
Experiment directory: ./results/mnist_generative_classification/bs128_ep200_aug2/conventional_w_Win_3032512/latent784_hidden1150/lr0.0001_run4
cuda:2
Created train split with 50000 samples
ConventionalMLP(
  (in_fc): Linear(in_features=784, out_features=784, bias=False)
  (blocks): ModuleList(
    (0): MLPBlockReLU(
      (norm): BatchNorm1d(784, eps=1e-05, momentum=0.1, affine=False, track_running_stats=True)
      (fc1): Linear(in_features=784, out_features=1150, bias=False)
      (act): ReLU()
      (fc2): Linear(in_features=1150, out_features=784, bias=False)
      (skip_add): SkipAdd()
    )
  )
  (out_fc): Linear(in_features=784, out_features=784, bias=False)
)
Total parameters: 3,032,512
Trainable parameters: 3,032,512
Training with W_in matrix!
Experiment directory: ./results/mnist_generative_classification/bs128_ep200_aug2/conventional_w_Win_I_3032512/latent784_hidden1150/lr0.0001_run4
ConventionalMLP(
  (in_fc): Linear(in_features=784, out_features=784, bias=False)
  (blocks): ModuleList(
    (0): MLPBlockReLU(
      (norm): BatchNorm1d(784, eps=1e-05, momentum=0.1, affine=False, track_running_stats=True)
      (fc1): Linear(in_features=784, out_features=1150, bias=False)
      (act): ReLU()
      (fc2): Linear(in_features=1150, out_features=784, bias=False)
      (skip_add): SkipAdd()
    )
  )
  (out_fc): Linear(in_features=784, out_features=784, bias=False)
)
Total parameters: 3,032,512
Trainable parameters: 2,417,856
Training with W_in matrix!
Experiment directory: ./results/mnist_generative_classification/bs128_ep200_aug2/conventional_w_Win_fix_I_2417856/latent784_hidden1150/lr0.0001_run4
Created eval split with 10000 samples

[INFO] Training conventional MLP
[INFO] Logging mode: epoch_based
Created train split with 50000 samples
[INFO] Linear LR Decay (epoch-based): 0.0001 -> 0.0 over 200 epochs
Created train split with 50000 samples
Created eval split with 10000 samples
Created eval split with 10000 samples

[INFO] Training conventional MLP
[INFO] Logging mode: epoch_based
[INFO] Linear LR Decay (epoch-based): 0.0001 -> 0.0 over 200 epochs

[INFO] Training conventional MLP
[INFO] Logging mode: epoch_based
[INFO] Linear LR Decay (epoch-based): 0.0001 -> 0.0 over 200 epochs
ConventionalMLP(
  (in_fc): Linear(in_features=784, out_features=784, bias=False)
  (blocks): ModuleList(
    (0): MLPBlockReLU(
      (norm): BatchNorm1d(784, eps=1e-05, momentum=0.1, affine=False, track_running_stats=True)
      (fc1): Linear(in_features=784, out_features=1150, bias=False)
      (act): ReLU()
      (fc2): Linear(in_features=1150, out_features=784, bias=False)
      (skip_add): SkipAdd()
    )
  )
  (out_fc): Linear(in_features=784, out_features=784, bias=False)
)
Total parameters: 3,032,512
Trainable parameters: 2,417,856
Training with W_in matrix!
Experiment directory: ./results/mnist_generative_classification/bs128_ep200_aug2/conventional_w_Win_fix_2417856/latent784_hidden1150/lr0.0001_run4
ConventionalMLP(
  (blocks): ModuleList(
    (0): MLPBlockReLU(
      (norm): BatchNorm1d(784, eps=1e-05, momentum=0.1, affine=False, track_running_stats=True)
      (fc1): Linear(in_features=784, out_features=1150, bias=False)
      (act): ReLU()
      (fc2): Linear(in_features=1150, out_features=784, bias=False)
      (skip_add): SkipAdd()
    )
  )
  (out_fc): Linear(in_features=784, out_features=784, bias=False)
)
Total parameters: 2,417,856
Trainable parameters: 2,417,856
Training with no W_in matrix!
Experiment directory: ./results/mnist_generative_classification/bs128_ep200_aug2/conventional_wo_Win_2417856/latent784_hidden1150/lr0.0001_run4
Created train split with 50000 samples
Created train split with 50000 samples
Created eval split with 10000 samples

[INFO] Training conventional MLP
…
Current working directory: /storage/ssd1/ArthurLee/Mediatek_research/hourglass-proj/code/hourglass
Current working directory: /storage/ssd1/ArthurLee/Mediatek_research/hourglass-proj/code/hourglass
Current working directory: /storage/ssd1/ArthurLee/Mediatek_research/hourglass-proj/code/hourglass
Current working directory: /storage/ssd1/ArthurLee/Mediatek_research/hourglass-proj/code/hourglass
Current working directory: /storage/ssd1/ArthurLee/Mediatek_research/hourglass-proj/code/hourglass
cuda:2
cuda:2
Initialize Win to Identity matrix
cuda:2
Initialize Win to Identity matrix
Set W_in to non-trianable
ConventionalMLP(
  (in_fc): Linear(in_features=784, out_features=784, bias=False)
  (blocks): ModuleList(
    (0): MLPBlockReLU(
      (norm): BatchNorm1d(784, eps=1e-05, momentum=0.1, affine=False, track_running_stats=True)
      (fc1): Linear(in_features=784, out_features=1150, bias=False)
      (act): ReLU()
      (fc2): Linear(in_features=1150, out_features=784, bias=False)
      (skip_add): SkipAdd()
    )
  )
  (out_fc): Linear(in_features=784, out_features=784, bias=False)
)
Total parameters: 3,032,512
Trainable parameters: 3,032,512
Training with W_in matrix!
Experiment directory: ./results/mnist_generative_classification/bs128_ep200_aug2/conventional_w_Win_3032512/latent784_hidden1150/lr0.0005_run4
cuda:2
cuda:2
Set W_in to non-trianable
Created train split with 50000 samples
ConventionalMLP(
  (in_fc): Linear(in_features=784, out_features=784, bias=False)
  (blocks): ModuleList(
    (0): MLPBlockReLU(
      (norm): BatchNorm1d(784, eps=1e-05, momentum=0.1, affine=False, track_running_stats=True)
      (fc1): Linear(in_features=784, out_features=1150, bias=False)
      (act): ReLU()
      (fc2): Linear(in_features=1150, out_features=784, bias=False)
      (skip_add): SkipAdd()
    )
  )
  (out_fc): Linear(in_features=784, out_features=784, bias=False)
)
Total parameters: 3,032,512
Trainable parameters: 3,032,512
Training with W_in matrix!
Experiment directory: ./results/mnist_generative_classification/bs128_ep200_aug2/conventional_w_Win_I_3032512/latent784_hidden1150/lr0.0005_run4
Created eval split with 10000 samples

[INFO] Training conventional MLP
[INFO] Logging mode: epoch_based
[INFO] Linear LR Decay (epoch-based): 0.0005 -> 0.0 over 200 epochs
Created train split with 50000 samples
ConventionalMLP(
  (in_fc): Linear(in_features=784, out_features=784, bias=False)
  (blocks): ModuleList(
    (0): MLPBlockReLU(
      (norm): BatchNorm1d(784, eps=1e-05, momentum=0.1, affine=False, track_running_stats=True)
      (fc1): Linear(in_features=784, out_features=1150, bias=False)
      (act): ReLU()
      (fc2): Linear(in_features=1150, out_features=784, bias=False)
      (skip_add): SkipAdd()
    )
  )
  (out_fc): Linear(in_features=784, out_features=784, bias=False)
)
Total parameters: 3,032,512
Trainable parameters: 2,417,856
Training with W_in matrix!
Experiment directory: ./results/mnist_generative_classification/bs128_ep200_aug2/conventional_w_Win_fix_I_2417856/latent784_hidden1150/lr0.0005_run4
Created eval split with 10000 samples

[INFO] Training conventional MLP
[INFO] Logging mode: epoch_based
[INFO] Linear LR Decay (epoch-based): 0.0005 -> 0.0 over 200 epochs
Created train split with 50000 samples
ConventionalMLP(
  (blocks): ModuleList(
    (0): MLPBlockReLU(
      (norm): BatchNorm1d(784, eps=1e-05, momentum=0.1, affine=False, track_running_stats=True)
      (fc1): Linear(in_features=784, out_features=1150, bias=False)
      (act): ReLU()
      (fc2): Linear(in_features=1150, out_features=784, bias=False)
      (skip_add): SkipAdd()
    )
  )
  (out_fc): Linear(in_features=784, out_features=784, bias=False)
)
Total parameters: 2,417,856
Trainable parameters: 2,417,856
Training with no W_in matrix!
Experiment directory: ./results/mnist_generative_classification/bs128_ep200_aug2/conventional_wo_Win_2417856/latent784_hidden1150/lr0.0005_run4
Created eval split with 10000 samples

[INFO] Training conventional MLP
[INFO] Logging mode: epoch_based
[INFO] Linear LR Decay (epoch-based): 0.0005 -> 0.0 over 200 epochs
ConventionalMLP(
  (in_fc): Linear(in_features=784, out_features=784, bias=False)
  (blocks): ModuleList(
    (0): MLPBlockReLU(
      (norm): BatchNorm1d(784, eps=1e-05, momentum=0.1, affine=False, track_running_stats=True)
      (fc1): Linear(in_features=784, out_features=1150, bias=False)
      (act): ReLU()
      (fc2): Linear(in_features=1150, out_features=784, bias=False)
      (skip_add): SkipAdd()
    )
  )
  (out_fc): Linear(in_features=784, out_features=784, bias=False)
)
Total parameters: 3,032,512
Trainable parameters: 2,417,856
Training with W_in matrix!
Experiment directory: ./results/mnist_generative_classification/bs128_ep200_aug2/conventional_w_Win_fix_2417856/latent784_hidden1150/lr0.0005_run4
Created train split with 50000 samples
Created eval split with 10000 samples
Created train split with 50000 samples

[INFO] Training conventional MLP
…
  File "/storage/ssd1/ArthurLee/Mediatek_research/hourglass-proj/code/hourglass/run.py", line 224, in <module>
    main()
  File "/storage/ssd1/ArthurLee/Mediatek_research/hourglass-proj/code/hourglass/run.py", line 152, in main
    raise ValueError(f"Dupicated experiment: [{exp_dir}] already exist and contains summary json file!")
ValueError: Dupicated experiment: [./results/mnist_generative_classification/bs128_ep200_aug2/conventional_w_Win_fix_I_2417856/latent784_hidden1150/lr0.0005_run5] already exist and contains summary json file!
ConventionalMLP(
  (blocks): ModuleList(
    (0): MLPBlockReLU(
      (norm): BatchNorm1d(784, eps=1e-05, momentum=0.1, affine=False, track_running_stats=True)
      (fc1): Linear(in_features=784, out_features=1150, bias=False)
      (act): ReLU()
      (fc2): Linear(in_features=1150, out_features=784, bias=False)
      (skip_add): SkipAdd()
    )
  )
  (out_fc): Linear(in_features=784, out_features=784, bias=False)
)
Total parameters: 2,417,856
Trainable parameters: 2,417,856
Training with no W_in matrix!
Experiment directory: ./results/mnist_generative_classification/bs128_ep200_aug2/conventional_wo_Win_2417856/latent784_hidden1150/lr0.0005_run5
Traceback (most recent call last):
  File "/storage/ssd1/ArthurLee/Mediatek_research/hourglass-proj/code/hourglass/run.py", line 224, in <module>
    main()
  File "/storage/ssd1/ArthurLee/Mediatek_research/hourglass-proj/code/hourglass/run.py", line 152, in main
    raise ValueError(f"Dupicated experiment: [{exp_dir}] already exist and contains summary json file!")
ValueError: Dupicated experiment: [./results/mnist_generative_classification/bs128_ep200_aug2/conventional_wo_Win_2417856/latent784_hidden1150/lr0.0005_run5] already exist and contains summary json file!
ConventionalMLP(
  (in_fc): Linear(in_features=784, out_features=784, bias=False)
  (blocks): ModuleList(
    (0): MLPBlockReLU(
      (norm): BatchNorm1d(784, eps=1e-05, momentum=0.1, affine=False, track_running_stats=True)
      (fc1): Linear(in_features=784, out_features=1150, bias=False)
      (act): ReLU()
      (fc2): Linear(in_features=1150, out_features=784, bias=False)
      (skip_add): SkipAdd()
    )
  )
  (out_fc): Linear(in_features=784, out_features=784, bias=False)
)
Total parameters: 3,032,512
Trainable parameters: 2,417,856
Training with W_in matrix!
Experiment directory: ./results/mnist_generative_classification/bs128_ep200_aug2/conventional_w_Win_fix_2417856/latent784_hidden1150/lr0.0005_run5
Traceback (most recent call last):
  File "/storage/ssd1/ArthurLee/Mediatek_research/hourglass-proj/code/hourglass/run.py", line 224, in <module>
…
