…
Current working directory: /storage/ssd1/ArthurLee/Mediatek_research/hourglass-proj/code/hourglass
Current working directory: /storage/ssd1/ArthurLee/Mediatek_research/hourglass-proj/code/hourglass
Current working directory: /storage/ssd1/ArthurLee/Mediatek_research/hourglass-proj/code/hourglass
Current working directory: /storage/ssd1/ArthurLee/Mediatek_research/hourglass-proj/code/hourglass
Current working directory: /storage/ssd1/ArthurLee/Mediatek_research/hourglass-proj/code/hourglass
cuda:1
Initialize Win to Identity matrix
cuda:1
cuda:1
Initialize Win to Identity matrix
Set W_in to non-trianable
cuda:1
ConventionalMLP(
  (in_fc): Linear(in_features=784, out_features=784, bias=False)
  (blocks): ModuleList(
    (0-5): 6 x MLPBlockReLU(
      (norm): BatchNorm1d(784, eps=1e-05, momentum=0.1, affine=False, track_running_stats=True)
      (fc1): Linear(in_features=784, out_features=1150, bias=False)
      (act): ReLU()
      (fc2): Linear(in_features=1150, out_features=784, bias=False)
      (skip_add): SkipAdd()
    )
  )
  (out_fc): Linear(in_features=784, out_features=784, bias=False)
)
Total parameters: 12,048,512
Trainable parameters: 12,048,512
Training with W_in matrix!
Experiment directory: ./results/mnist_generative_classification/bs128_ep200_aug2/conventional_w_Win_I_12048512/latent784_hidden1150_1150_1150_1150_1150_1150/lr1e-05_run1
Created train split with 50000 samples
Created eval split with 10000 samples
cuda:1
Set W_in to non-trianable

[INFO] Training conventional MLP
[INFO] Logging mode: epoch_based
[INFO] Linear LR Decay (epoch-based): 1e-05 -> 0.0 over 200 epochs
ConventionalMLP(
  (in_fc): Linear(in_features=784, out_features=784, bias=False)
  (blocks): ModuleList(
    (0-5): 6 x MLPBlockReLU(
      (norm): BatchNorm1d(784, eps=1e-05, momentum=0.1, affine=False, track_running_stats=True)
      (fc1): Linear(in_features=784, out_features=1150, bias=False)
      (act): ReLU()
      (fc2): Linear(in_features=1150, out_features=784, bias=False)
      (skip_add): SkipAdd()
    )
  )
  (out_fc): Linear(in_features=784, out_features=784, bias=False)
)
Total parameters: 12,048,512
Trainable parameters: 12,048,512
Training with W_in matrix!
Experiment directory: ./results/mnist_generative_classification/bs128_ep200_aug2/conventional_w_Win_12048512/latent784_hidden1150_1150_1150_1150_1150_1150/lr1e-05_run1
Created train split with 50000 samples
ConventionalMLP(
  (in_fc): Linear(in_features=784, out_features=784, bias=False)
  (blocks): ModuleList(
    (0-5): 6 x MLPBlockReLU(
      (norm): BatchNorm1d(784, eps=1e-05, momentum=0.1, affine=False, track_running_stats=True)
      (fc1): Linear(in_features=784, out_features=1150, bias=False)
      (act): ReLU()
      (fc2): Linear(in_features=1150, out_features=784, bias=False)
      (skip_add): SkipAdd()
    )
  )
  (out_fc): Linear(in_features=784, out_features=784, bias=False)
)
Total parameters: 12,048,512
Trainable parameters: 11,433,856
Training with W_in matrix!
Experiment directory: ./results/mnist_generative_classification/bs128_ep200_aug2/conventional_w_Win_fix_I_11433856/latent784_hidden1150_1150_1150_1150_1150_1150/lr1e-05_run1
ConventionalMLP(
  (blocks): ModuleList(
    (0-5): 6 x MLPBlockReLU(
      (norm): BatchNorm1d(784, eps=1e-05, momentum=0.1, affine=False, track_running_stats=True)
      (fc1): Linear(in_features=784, out_features=1150, bias=False)
      (act): ReLU()
      (fc2): Linear(in_features=1150, out_features=784, bias=False)
      (skip_add): SkipAdd()
    )
  )
  (out_fc): Linear(in_features=784, out_features=784, bias=False)
)
Total parameters: 11,433,856
Trainable parameters: 11,433,856
Training with no W_in matrix!
Experiment directory: ./results/mnist_generative_classification/bs128_ep200_aug2/conventional_wo_Win_11433856/latent784_hidden1150_1150_1150_1150_1150_1150/lr1e-05_run1
Created eval split with 10000 samples
Created train split with 50000 samples

[INFO] Training conventional MLP
[INFO] Logging mode: epoch_based
[INFO] Linear LR Decay (epoch-based): 1e-05 -> 0.0 over 200 epochs
Created train split with 50000 samples
Created eval split with 10000 samples

[INFO] Training conventional MLP
[INFO] Logging mode: epoch_based
[INFO] Linear LR Decay (epoch-based): 1e-05 -> 0.0 over 200 epochs
Created eval split with 10000 samples

[INFO] Training conventional MLP
[INFO] Logging mode: epoch_based
[INFO] Linear LR Decay (epoch-based): 1e-05 -> 0.0 over 200 epochs
ConventionalMLP(
  (in_fc): Linear(in_features=784, out_features=784, bias=False)
  (blocks): ModuleList(
    (0-5): 6 x MLPBlockReLU(
      (norm): BatchNorm1d(784, eps=1e-05, momentum=0.1, affine=False, track_running_stats=True)
      (fc1): Linear(in_features=784, out_features=1150, bias=False)
      (act): ReLU()
      (fc2): Linear(in_features=1150, out_features=784, bias=False)
      (skip_add): SkipAdd()
    )
  )
  (out_fc): Linear(in_features=784, out_features=784, bias=False)
)
Total parameters: 12,048,512
Trainable parameters: 11,433,856
Training with W_in matrix!
Experiment directory: ./results/mnist_generative_classification/bs128_ep200_aug2/conventional_w_Win_fix_11433856/latent784_hidden1150_1150_1150_1150_1150_1150/lr1e-05_run1
Created train split with 50000 samples
Created eval split with 10000 samples

[INFO] Training conventional MLP
…
Current working directory: /storage/ssd1/ArthurLee/Mediatek_research/hourglass-proj/code/hourglass
Current working directory: /storage/ssd1/ArthurLee/Mediatek_research/hourglass-proj/code/hourglass
Current working directory: /storage/ssd1/ArthurLee/Mediatek_research/hourglass-proj/code/hourglass
Current working directory: /storage/ssd1/ArthurLee/Mediatek_research/hourglass-proj/code/hourglass
Current working directory: /storage/ssd1/ArthurLee/Mediatek_research/hourglass-proj/code/hourglass
cuda:1
Initialize Win to Identity matrix
Set W_in to non-trianable
cuda:1
Initialize Win to Identity matrix
cuda:1
cuda:1
cuda:1
Set W_in to non-trianable
ConventionalMLP(
  (in_fc): Linear(in_features=784, out_features=784, bias=False)
  (blocks): ModuleList(
    (0-5): 6 x MLPBlockReLU(
      (norm): BatchNorm1d(784, eps=1e-05, momentum=0.1, affine=False, track_running_stats=True)
      (fc1): Linear(in_features=784, out_features=1150, bias=False)
      (act): ReLU()
      (fc2): Linear(in_features=1150, out_features=784, bias=False)
      (skip_add): SkipAdd()
    )
  )
  (out_fc): Linear(in_features=784, out_features=784, bias=False)
)
Total parameters: 12,048,512
Trainable parameters: 11,433,856
Training with W_in matrix!
Experiment directory: ./results/mnist_generative_classification/bs128_ep200_aug2/conventional_w_Win_fix_I_11433856/latent784_hidden1150_1150_1150_1150_1150_1150/lr0.0005_run1
Created train split with 50000 samples
Created eval split with 10000 samples
ConventionalMLP(
  (blocks): ModuleList(
    (0-5): 6 x MLPBlockReLU(
      (norm): BatchNorm1d(784, eps=1e-05, momentum=0.1, affine=False, track_running_stats=True)
      (fc1): Linear(in_features=784, out_features=1150, bias=False)
      (act): ReLU()
      (fc2): Linear(in_features=1150, out_features=784, bias=False)
      (skip_add): SkipAdd()
    )
  )
  (out_fc): Linear(in_features=784, out_features=784, bias=False)
)
Total parameters: 11,433,856
Trainable parameters: 11,433,856
Training with no W_in matrix!
Experiment directory: ./results/mnist_generative_classification/bs128_ep200_aug2/conventional_wo_Win_11433856/latent784_hidden1150_1150_1150_1150_1150_1150/lr0.0005_run1

[INFO] Training conventional MLP
[INFO] Logging mode: epoch_based
[INFO] Linear LR Decay (epoch-based): 0.0005 -> 0.0 over 200 epochs
ConventionalMLP(
  (in_fc): Linear(in_features=784, out_features=784, bias=False)
  (blocks): ModuleList(
    (0-5): 6 x MLPBlockReLU(
      (norm): BatchNorm1d(784, eps=1e-05, momentum=0.1, affine=False, track_running_stats=True)
      (fc1): Linear(in_features=784, out_features=1150, bias=False)
      (act): ReLU()
      (fc2): Linear(in_features=1150, out_features=784, bias=False)
      (skip_add): SkipAdd()
    )
  )
  (out_fc): Linear(in_features=784, out_features=784, bias=False)
)
Total parameters: 12,048,512
Trainable parameters: 12,048,512
Training with W_in matrix!
Experiment directory: ./results/mnist_generative_classification/bs128_ep200_aug2/conventional_w_Win_I_12048512/latent784_hidden1150_1150_1150_1150_1150_1150/lr0.0005_run1
ConventionalMLP(
  (in_fc): Linear(in_features=784, out_features=784, bias=False)
  (blocks): ModuleList(
    (0-5): 6 x MLPBlockReLU(
      (norm): BatchNorm1d(784, eps=1e-05, momentum=0.1, affine=False, track_running_stats=True)
      (fc1): Linear(in_features=784, out_features=1150, bias=False)
      (act): ReLU()
      (fc2): Linear(in_features=1150, out_features=784, bias=False)
      (skip_add): SkipAdd()
    )
  )
  (out_fc): Linear(in_features=784, out_features=784, bias=False)
)
Total parameters: 12,048,512
Trainable parameters: 12,048,512
Training with W_in matrix!
Experiment directory: ./results/mnist_generative_classification/bs128_ep200_aug2/conventional_w_Win_12048512/latent784_hidden1150_1150_1150_1150_1150_1150/lr0.0005_run1
Created train split with 50000 samples
Created train split with 50000 samples
Created train split with 50000 samples
ConventionalMLP(
  (in_fc): Linear(in_features=784, out_features=784, bias=False)
  (blocks): ModuleList(
    (0-5): 6 x MLPBlockReLU(
      (norm): BatchNorm1d(784, eps=1e-05, momentum=0.1, affine=False, track_running_stats=True)
      (fc1): Linear(in_features=784, out_features=1150, bias=False)
      (act): ReLU()
      (fc2): Linear(in_features=1150, out_features=784, bias=False)
      (skip_add): SkipAdd()
    )
  )
  (out_fc): Linear(in_features=784, out_features=784, bias=False)
)
Total parameters: 12,048,512
Trainable parameters: 11,433,856
Training with W_in matrix!
Experiment directory: ./results/mnist_generative_classification/bs128_ep200_aug2/conventional_w_Win_fix_11433856/latent784_hidden1150_1150_1150_1150_1150_1150/lr0.0005_run1
Created eval split with 10000 samples
Created eval split with 10000 samples

[INFO] Training conventional MLP
…
Current working directory: /storage/ssd1/ArthurLee/Mediatek_research/hourglass-proj/code/hourglass
Current working directory: /storage/ssd1/ArthurLee/Mediatek_research/hourglass-proj/code/hourglass
Current working directory: /storage/ssd1/ArthurLee/Mediatek_research/hourglass-proj/code/hourglass
Current working directory: /storage/ssd1/ArthurLee/Mediatek_research/hourglass-proj/code/hourglass
Current working directory: /storage/ssd1/ArthurLee/Mediatek_research/hourglass-proj/code/hourglass
cuda:1
Initialize Win to Identity matrix
Set W_in to non-trianable
cuda:1
cuda:1
Initialize Win to Identity matrix
cuda:1
ConventionalMLP(
  (in_fc): Linear(in_features=784, out_features=784, bias=False)
  (blocks): ModuleList(
    (0-5): 6 x MLPBlockReLU(
      (norm): BatchNorm1d(784, eps=1e-05, momentum=0.1, affine=False, track_running_stats=True)
      (fc1): Linear(in_features=784, out_features=1150, bias=False)
      (act): ReLU()
      (fc2): Linear(in_features=1150, out_features=784, bias=False)
      (skip_add): SkipAdd()
    )
  )
  (out_fc): Linear(in_features=784, out_features=784, bias=False)
)
Total parameters: 12,048,512
Trainable parameters: 11,433,856
Training with W_in matrix!
Experiment directory: ./results/mnist_generative_classification/bs128_ep200_aug2/conventional_w_Win_fix_I_11433856/latent784_hidden1150_1150_1150_1150_1150_1150/lr1e-05_run2
ConventionalMLP(
  (blocks): ModuleList(
    (0-5): 6 x MLPBlockReLU(
      (norm): BatchNorm1d(784, eps=1e-05, momentum=0.1, affine=False, track_running_stats=True)
      (fc1): Linear(in_features=784, out_features=1150, bias=False)
      (act): ReLU()
      (fc2): Linear(in_features=1150, out_features=784, bias=False)
      (skip_add): SkipAdd()
    )
  )
  (out_fc): Linear(in_features=784, out_features=784, bias=False)
)
Total parameters: 11,433,856
Trainable parameters: 11,433,856
Training with no W_in matrix!
Experiment directory: ./results/mnist_generative_classification/bs128_ep200_aug2/conventional_wo_Win_11433856/latent784_hidden1150_1150_1150_1150_1150_1150/lr1e-05_run2
ConventionalMLP(
  (in_fc): Linear(in_features=784, out_features=784, bias=False)
  (blocks): ModuleList(
    (0-5): 6 x MLPBlockReLU(
      (norm): BatchNorm1d(784, eps=1e-05, momentum=0.1, affine=False, track_running_stats=True)
      (fc1): Linear(in_features=784, out_features=1150, bias=False)
      (act): ReLU()
      (fc2): Linear(in_features=1150, out_features=784, bias=False)
      (skip_add): SkipAdd()
    )
  )
  (out_fc): Linear(in_features=784, out_features=784, bias=False)
)
Total parameters: 12,048,512
Trainable parameters: 12,048,512
Training with W_in matrix!
Experiment directory: ./results/mnist_generative_classification/bs128_ep200_aug2/conventional_w_Win_I_12048512/latent784_hidden1150_1150_1150_1150_1150_1150/lr1e-05_run2
Created train split with 50000 samples
Created train split with 50000 samples
Created train split with 50000 samples
Created eval split with 10000 samples
Created eval split with 10000 samples
Created eval split with 10000 samples
ConventionalMLP(
  (in_fc): Linear(in_features=784, out_features=784, bias=False)
  (blocks): ModuleList(
    (0-5): 6 x MLPBlockReLU(
      (norm): BatchNorm1d(784, eps=1e-05, momentum=0.1, affine=False, track_running_stats=True)
      (fc1): Linear(in_features=784, out_features=1150, bias=False)
      (act): ReLU()
      (fc2): Linear(in_features=1150, out_features=784, bias=False)
      (skip_add): SkipAdd()
    )
  )
  (out_fc): Linear(in_features=784, out_features=784, bias=False)
)
Total parameters: 12,048,512
Trainable parameters: 12,048,512
Training with W_in matrix!
Experiment directory: ./results/mnist_generative_classification/bs128_ep200_aug2/conventional_w_Win_12048512/latent784_hidden1150_1150_1150_1150_1150_1150/lr1e-05_run2

[INFO] Training conventional MLP
[INFO] Logging mode: epoch_based
[INFO] Linear LR Decay (epoch-based): 1e-05 -> 0.0 over 200 epochs
…
Current working directory: /storage/ssd1/ArthurLee/Mediatek_research/hourglass-proj/code/hourglass
Current working directory: /storage/ssd1/ArthurLee/Mediatek_research/hourglass-proj/code/hourglass
Current working directory: /storage/ssd1/ArthurLee/Mediatek_research/hourglass-proj/code/hourglass
Current working directory: /storage/ssd1/ArthurLee/Mediatek_research/hourglass-proj/code/hourglass
Current working directory: /storage/ssd1/ArthurLee/Mediatek_research/hourglass-proj/code/hourglass
cuda:1
cuda:1
Initialize Win to Identity matrix
Set W_in to non-trianable
cuda:1
Initialize Win to Identity matrix
cuda:1
Set W_in to non-trianable
cuda:1
ConventionalMLP(
  (in_fc): Linear(in_features=784, out_features=784, bias=False)
  (blocks): ModuleList(
    (0-5): 6 x MLPBlockReLU(
      (norm): BatchNorm1d(784, eps=1e-05, momentum=0.1, affine=False, track_running_stats=True)
      (fc1): Linear(in_features=784, out_features=1150, bias=False)
      (act): ReLU()
      (fc2): Linear(in_features=1150, out_features=784, bias=False)
      (skip_add): SkipAdd()
    )
  )
  (out_fc): Linear(in_features=784, out_features=784, bias=False)
)
Total parameters: 12,048,512
Trainable parameters: 12,048,512
Training with W_in matrix!
Experiment directory: ./results/mnist_generative_classification/bs128_ep200_aug2/conventional_w_Win_12048512/latent784_hidden1150_1150_1150_1150_1150_1150/lr5e-05_run2
ConventionalMLP(
  (in_fc): Linear(in_features=784, out_features=784, bias=False)
  (blocks): ModuleList(
    (0-5): 6 x MLPBlockReLU(
      (norm): BatchNorm1d(784, eps=1e-05, momentum=0.1, affine=False, track_running_stats=True)
      (fc1): Linear(in_features=784, out_features=1150, bias=False)
      (act): ReLU()
      (fc2): Linear(in_features=1150, out_features=784, bias=False)
      (skip_add): SkipAdd()
    )
  )
  (out_fc): Linear(in_features=784, out_features=784, bias=False)
)
Total parameters: 12,048,512
Trainable parameters: 11,433,856
Training with W_in matrix!
Experiment directory: ./results/mnist_generative_classification/bs128_ep200_aug2/conventional_w_Win_fix_I_11433856/latent784_hidden1150_1150_1150_1150_1150_1150/lr5e-05_run2
Created train split with 50000 samples
Created train split with 50000 samples
ConventionalMLP(
  (in_fc): Linear(in_features=784, out_features=784, bias=False)
  (blocks): ModuleList(
    (0-5): 6 x MLPBlockReLU(
      (norm): BatchNorm1d(784, eps=1e-05, momentum=0.1, affine=False, track_running_stats=True)
      (fc1): Linear(in_features=784, out_features=1150, bias=False)
      (act): ReLU()
      (fc2): Linear(in_features=1150, out_features=784, bias=False)
      (skip_add): SkipAdd()
    )
  )
  (out_fc): Linear(in_features=784, out_features=784, bias=False)
)
Total parameters: 12,048,512
Trainable parameters: 11,433,856
Training with W_in matrix!
Experiment directory: ./results/mnist_generative_classification/bs128_ep200_aug2/conventional_w_Win_fix_11433856/latent784_hidden1150_1150_1150_1150_1150_1150/lr5e-05_run2
Created eval split with 10000 samples
Created eval split with 10000 samples

[INFO] Training conventional MLP
[INFO] Logging mode: epoch_based
[INFO] Linear LR Decay (epoch-based): 5e-05 -> 0.0 over 200 epochs

[INFO] Training conventional MLP
[INFO] Logging mode: epoch_based
[INFO] Linear LR Decay (epoch-based): 5e-05 -> 0.0 over 200 epochs
Created train split with 50000 samples
ConventionalMLP(
  (in_fc): Linear(in_features=784, out_features=784, bias=False)
  (blocks): ModuleList(
    (0-5): 6 x MLPBlockReLU(
      (norm): BatchNorm1d(784, eps=1e-05, momentum=0.1, affine=False, track_running_stats=True)
      (fc1): Linear(in_features=784, out_features=1150, bias=False)
      (act): ReLU()
      (fc2): Linear(in_features=1150, out_features=784, bias=False)
      (skip_add): SkipAdd()
    )
  )
  (out_fc): Linear(in_features=784, out_features=784, bias=False)
)
Total parameters: 12,048,512
Trainable parameters: 12,048,512
Training with W_in matrix!
Experiment directory: ./results/mnist_generative_classification/bs128_ep200_aug2/conventional_w_Win_I_12048512/latent784_hidden1150_1150_1150_1150_1150_1150/lr5e-05_run2
ConventionalMLP(
  (blocks): ModuleList(
    (0-5): 6 x MLPBlockReLU(
      (norm): BatchNorm1d(784, eps=1e-05, momentum=0.1, affine=False, track_running_stats=True)
      (fc1): Linear(in_features=784, out_features=1150, bias=False)
      (act): ReLU()
      (fc2): Linear(in_features=1150, out_features=784, bias=False)
      (skip_add): SkipAdd()
    )
  )
  (out_fc): Linear(in_features=784, out_features=784, bias=False)
)
Total parameters: 11,433,856
Trainable parameters: 11,433,856
Training with no W_in matrix!
Experiment directory: ./results/mnist_generative_classification/bs128_ep200_aug2/conventional_wo_Win_11433856/latent784_hidden1150_1150_1150_1150_1150_1150/lr5e-05_run2
Created eval split with 10000 samples

[INFO] Training conventional MLP
[INFO] Logging mode: epoch_based
…
Current working directory: /storage/ssd1/ArthurLee/Mediatek_research/hourglass-proj/code/hourglass
Current working directory: /storage/ssd1/ArthurLee/Mediatek_research/hourglass-proj/code/hourglass
Current working directory: /storage/ssd1/ArthurLee/Mediatek_research/hourglass-proj/code/hourglass
Current working directory: /storage/ssd1/ArthurLee/Mediatek_research/hourglass-proj/code/hourglass
cuda:1
cuda:1
cuda:1
cuda:1
Initialize Win to Identity matrix
Set W_in to non-trianable
Initialize Win to Identity matrix
cuda:1
Set W_in to non-trianable
ConventionalMLP(
  (blocks): ModuleList(
    (0-5): 6 x MLPBlockReLU(
      (norm): BatchNorm1d(784, eps=1e-05, momentum=0.1, affine=False, track_running_stats=True)
      (fc1): Linear(in_features=784, out_features=1150, bias=False)
      (act): ReLU()
      (fc2): Linear(in_features=1150, out_features=784, bias=False)
      (skip_add): SkipAdd()
    )
  )
  (out_fc): Linear(in_features=784, out_features=784, bias=False)
)
Total parameters: 11,433,856
Trainable parameters: 11,433,856
Training with no W_in matrix!
Experiment directory: ./results/mnist_generative_classification/bs128_ep200_aug2/conventional_wo_Win_11433856/latent784_hidden1150_1150_1150_1150_1150_1150/lr0.0001_run2
ConventionalMLP(
  (in_fc): Linear(in_features=784, out_features=784, bias=False)
  (blocks): ModuleList(
    (0-5): 6 x MLPBlockReLU(
      (norm): BatchNorm1d(784, eps=1e-05, momentum=0.1, affine=False, track_running_stats=True)
      (fc1): Linear(in_features=784, out_features=1150, bias=False)
      (act): ReLU()
      (fc2): Linear(in_features=1150, out_features=784, bias=False)
      (skip_add): SkipAdd()
    )
  )
  (out_fc): Linear(in_features=784, out_features=784, bias=False)
)
Total parameters: 12,048,512
Trainable parameters: 11,433,856
Training with W_in matrix!
Experiment directory: ./results/mnist_generative_classification/bs128_ep200_aug2/conventional_w_Win_fix_I_11433856/latent784_hidden1150_1150_1150_1150_1150_1150/lr0.0001_run2
Created train split with 50000 samples
ConventionalMLP(
  (in_fc): Linear(in_features=784, out_features=784, bias=False)
  (blocks): ModuleList(
    (0-5): 6 x MLPBlockReLU(
      (norm): BatchNorm1d(784, eps=1e-05, momentum=0.1, affine=False, track_running_stats=True)
      (fc1): Linear(in_features=784, out_features=1150, bias=False)
      (act): ReLU()
      (fc2): Linear(in_features=1150, out_features=784, bias=False)
      (skip_add): SkipAdd()
    )
  )
  (out_fc): Linear(in_features=784, out_features=784, bias=False)
)
Total parameters: 12,048,512
Trainable parameters: 12,048,512
Training with W_in matrix!
Experiment directory: ./results/mnist_generative_classification/bs128_ep200_aug2/conventional_w_Win_12048512/latent784_hidden1150_1150_1150_1150_1150_1150/lr0.0001_run2
ConventionalMLP(
  (in_fc): Linear(in_features=784, out_features=784, bias=False)
  (blocks): ModuleList(
    (0-5): 6 x MLPBlockReLU(
      (norm): BatchNorm1d(784, eps=1e-05, momentum=0.1, affine=False, track_running_stats=True)
      (fc1): Linear(in_features=784, out_features=1150, bias=False)
      (act): ReLU()
      (fc2): Linear(in_features=1150, out_features=784, bias=False)
      (skip_add): SkipAdd()
    )
  )
  (out_fc): Linear(in_features=784, out_features=784, bias=False)
)
Total parameters: 12,048,512
Trainable parameters: 11,433,856
Training with W_in matrix!
Experiment directory: ./results/mnist_generative_classification/bs128_ep200_aug2/conventional_w_Win_fix_11433856/latent784_hidden1150_1150_1150_1150_1150_1150/lr0.0001_run2
Created train split with 50000 samples
ConventionalMLP(
  (in_fc): Linear(in_features=784, out_features=784, bias=False)
  (blocks): ModuleList(
    (0-5): 6 x MLPBlockReLU(
      (norm): BatchNorm1d(784, eps=1e-05, momentum=0.1, affine=False, track_running_stats=True)
      (fc1): Linear(in_features=784, out_features=1150, bias=False)
      (act): ReLU()
      (fc2): Linear(in_features=1150, out_features=784, bias=False)
      (skip_add): SkipAdd()
    )
  )
  (out_fc): Linear(in_features=784, out_features=784, bias=False)
)
Total parameters: 12,048,512
Trainable parameters: 12,048,512
Training with W_in matrix!
Experiment directory: ./results/mnist_generative_classification/bs128_ep200_aug2/conventional_w_Win_I_12048512/latent784_hidden1150_1150_1150_1150_1150_1150/lr0.0001_run2
Created eval split with 10000 samples
Created train split with 50000 samples
Created train split with 50000 samples
…
Current working directory: /storage/ssd1/ArthurLee/Mediatek_research/hourglass-proj/code/hourglass
Current working directory: /storage/ssd1/ArthurLee/Mediatek_research/hourglass-proj/code/hourglass
Current working directory: /storage/ssd1/ArthurLee/Mediatek_research/hourglass-proj/code/hourglass
Current working directory: /storage/ssd1/ArthurLee/Mediatek_research/hourglass-proj/code/hourglass
Current working directory: /storage/ssd1/ArthurLee/Mediatek_research/hourglass-proj/code/hourglass
cuda:1
Initialize Win to Identity matrix
cuda:1
Initialize Win to Identity matrix
Set W_in to non-trianable
ConventionalMLP(
  (in_fc): Linear(in_features=784, out_features=784, bias=False)
  (blocks): ModuleList(
    (0-5): 6 x MLPBlockReLU(
      (norm): BatchNorm1d(784, eps=1e-05, momentum=0.1, affine=False, track_running_stats=True)
      (fc1): Linear(in_features=784, out_features=1150, bias=False)
      (act): ReLU()
      (fc2): Linear(in_features=1150, out_features=784, bias=False)
      (skip_add): SkipAdd()
    )
  )
  (out_fc): Linear(in_features=784, out_features=784, bias=False)
)
Total parameters: 12,048,512
Trainable parameters: 12,048,512
Training with W_in matrix!
Experiment directory: ./results/mnist_generative_classification/bs128_ep200_aug2/conventional_w_Win_I_12048512/latent784_hidden1150_1150_1150_1150_1150_1150/lr0.0005_run2
cuda:1
Created train split with 50000 samples
cuda:1
Set W_in to non-trianable
Created eval split with 10000 samples
cuda:1

[INFO] Training conventional MLP
[INFO] Logging mode: epoch_based
[INFO] Linear LR Decay (epoch-based): 0.0005 -> 0.0 over 200 epochs
ConventionalMLP(
  (in_fc): Linear(in_features=784, out_features=784, bias=False)
  (blocks): ModuleList(
    (0-5): 6 x MLPBlockReLU(
      (norm): BatchNorm1d(784, eps=1e-05, momentum=0.1, affine=False, track_running_stats=True)
      (fc1): Linear(in_features=784, out_features=1150, bias=False)
      (act): ReLU()
      (fc2): Linear(in_features=1150, out_features=784, bias=False)
      (skip_add): SkipAdd()
    )
  )
  (out_fc): Linear(in_features=784, out_features=784, bias=False)
)
Total parameters: 12,048,512
Trainable parameters: 11,433,856
Training with W_in matrix!
Experiment directory: ./results/mnist_generative_classification/bs128_ep200_aug2/conventional_w_Win_fix_I_11433856/latent784_hidden1150_1150_1150_1150_1150_1150/lr0.0005_run2
Created train split with 50000 samples
Created eval split with 10000 samples

[INFO] Training conventional MLP
[INFO] Logging mode: epoch_based
[INFO] Linear LR Decay (epoch-based): 0.0005 -> 0.0 over 200 epochs
ConventionalMLP(
  (blocks): ModuleList(
    (0-5): 6 x MLPBlockReLU(
      (norm): BatchNorm1d(784, eps=1e-05, momentum=0.1, affine=False, track_running_stats=True)
      (fc1): Linear(in_features=784, out_features=1150, bias=False)
      (act): ReLU()
      (fc2): Linear(in_features=1150, out_features=784, bias=False)
      (skip_add): SkipAdd()
    )
  )
  (out_fc): Linear(in_features=784, out_features=784, bias=False)
)
Total parameters: 11,433,856
Trainable parameters: 11,433,856
Training with no W_in matrix!
Experiment directory: ./results/mnist_generative_classification/bs128_ep200_aug2/conventional_wo_Win_11433856/latent784_hidden1150_1150_1150_1150_1150_1150/lr0.0005_run2
Created train split with 50000 samples
ConventionalMLP(
  (in_fc): Linear(in_features=784, out_features=784, bias=False)
  (blocks): ModuleList(
    (0-5): 6 x MLPBlockReLU(
      (norm): BatchNorm1d(784, eps=1e-05, momentum=0.1, affine=False, track_running_stats=True)
      (fc1): Linear(in_features=784, out_features=1150, bias=False)
      (act): ReLU()
      (fc2): Linear(in_features=1150, out_features=784, bias=False)
      (skip_add): SkipAdd()
    )
  )
  (out_fc): Linear(in_features=784, out_features=784, bias=False)
)
Total parameters: 12,048,512
Trainable parameters: 11,433,856
Training with W_in matrix!
Experiment directory: ./results/mnist_generative_classification/bs128_ep200_aug2/conventional_w_Win_fix_11433856/latent784_hidden1150_1150_1150_1150_1150_1150/lr0.0005_run2
Created eval split with 10000 samples
ConventionalMLP(
  (in_fc): Linear(in_features=784, out_features=784, bias=False)
  (blocks): ModuleList(
    (0-5): 6 x MLPBlockReLU(
      (norm): BatchNorm1d(784, eps=1e-05, momentum=0.1, affine=False, track_running_stats=True)
      (fc1): Linear(in_features=784, out_features=1150, bias=False)
      (act): ReLU()
      (fc2): Linear(in_features=1150, out_features=784, bias=False)
      (skip_add): SkipAdd()
    )
  )
  (out_fc): Linear(in_features=784, out_features=784, bias=False)
)
Total parameters: 12,048,512
Trainable parameters: 12,048,512
Training with W_in matrix!
Experiment directory: ./results/mnist_generative_classification/bs128_ep200_aug2/conventional_w_Win_12048512/latent784_hidden1150_1150_1150_1150_1150_1150/lr0.0005_run2

[INFO] Training conventional MLP
[INFO] Logging mode: epoch_based
[INFO] Linear LR Decay (epoch-based): 0.0005 -> 0.0 over 200 epochs
…
==========================================
Current working directory: /storage/ssd1/ArthurLee/Mediatek_research/hourglass-proj/code/hourglass
Current working directory: /storage/ssd1/ArthurLee/Mediatek_research/hourglass-proj/code/hourglassCurrent working directory: /storage/ssd1/ArthurLee/Mediatek_research/hourglass-proj/code/hourglass

Current working directory: /storage/ssd1/ArthurLee/Mediatek_research/hourglass-proj/code/hourglass
Current working directory: /storage/ssd1/ArthurLee/Mediatek_research/hourglass-proj/code/hourglass
cuda:1
cuda:1
Set W_in to non-trianable
ConventionalMLP(
  (in_fc): Linear(in_features=784, out_features=784, bias=False)
  (blocks): ModuleList(
    (0-5): 6 x MLPBlockReLU(
      (norm): BatchNorm1d(784, eps=1e-05, momentum=0.1, affine=False, track_running_stats=True)
      (fc1): Linear(in_features=784, out_features=1150, bias=False)
      (act): ReLU()
      (fc2): Linear(in_features=1150, out_features=784, bias=False)
      (skip_add): SkipAdd()
    )
  )
  (out_fc): Linear(in_features=784, out_features=784, bias=False)
)
Total parameters: 12,048,512
Trainable parameters: 12,048,512
Training with W_in matrix!
Experiment directory: ./results/mnist_generative_classification/bs128_ep200_aug2/conventional_w_Win_12048512/latent784_hidden1150_1150_1150_1150_1150_1150/lr1e-05_run3
Created train split with 50000 samples
Created eval split with 10000 samples

[INFO] Training conventional MLP
[INFO] Logging mode: epoch_based
[INFO] Linear LR Decay (epoch-based): 1e-05 -> 0.0 over 200 epochs
cuda:1
Initialize Win to Identity matrix
cuda:1
ConventionalMLP(
  (in_fc): Linear(in_features=784, out_features=784, bias=False)
  (blocks): ModuleList(
    (0-5): 6 x MLPBlockReLU(
      (norm): BatchNorm1d(784, eps=1e-05, momentum=0.1, affine=False, track_running_stats=True)
      (fc1): Linear(in_features=784, out_features=1150, bias=False)
      (act): ReLU()
      (fc2): Linear(in_features=1150, out_features=784, bias=False)
      (skip_add): SkipAdd()
    )
  )
  (out_fc): Linear(in_features=784, out_features=784, bias=False)
)
Total parameters: 12,048,512
Trainable parameters: 11,433,856
Training with W_in matrix!
Experiment directory: ./results/mnist_generative_classification/bs128_ep200_aug2/conventional_w_Win_fix_11433856/latent784_hidden1150_1150_1150_1150_1150_1150/lr1e-05_run3
Created train split with 50000 samples
cuda:1
Initialize Win to Identity matrix
Set W_in to non-trianable
Created eval split with 10000 samples

[INFO] Training conventional MLP
[INFO] Logging mode: epoch_based
[INFO] Linear LR Decay (epoch-based): 1e-05 -> 0.0 over 200 epochs
ConventionalMLP(
  (in_fc): Linear(in_features=784, out_features=784, bias=False)
  (blocks): ModuleList(
    (0-5): 6 x MLPBlockReLU(
      (norm): BatchNorm1d(784, eps=1e-05, momentum=0.1, affine=False, track_running_stats=True)
      (fc1): Linear(in_features=784, out_features=1150, bias=False)
      (act): ReLU()
      (fc2): Linear(in_features=1150, out_features=784, bias=False)
      (skip_add): SkipAdd()
    )
  )
  (out_fc): Linear(in_features=784, out_features=784, bias=False)
)
Total parameters: 12,048,512
Trainable parameters: 12,048,512
Training with W_in matrix!
Experiment directory: ./results/mnist_generative_classification/bs128_ep200_aug2/conventional_w_Win_I_12048512/latent784_hidden1150_1150_1150_1150_1150_1150/lr1e-05_run3
ConventionalMLP(
  (blocks): ModuleList(
    (0-5): 6 x MLPBlockReLU(
      (norm): BatchNorm1d(784, eps=1e-05, momentum=0.1, affine=False, track_running_stats=True)
      (fc1): Linear(in_features=784, out_features=1150, bias=False)
      (act): ReLU()
      (fc2): Linear(in_features=1150, out_features=784, bias=False)
      (skip_add): SkipAdd()
    )
  )
  (out_fc): Linear(in_features=784, out_features=784, bias=False)
)
Total parameters: 11,433,856
Trainable parameters: 11,433,856
Training with no W_in matrix!
Experiment directory: ./results/mnist_generative_classification/bs128_ep200_aug2/conventional_wo_Win_11433856/latent784_hidden1150_1150_1150_1150_1150_1150/lr1e-05_run3
Created train split with 50000 samples
Created train split with 50000 samples
Created eval split with 10000 samples

[INFO] Training conventional MLP
[INFO] Logging mode: epoch_based
[INFO] Linear LR Decay (epoch-based): 1e-05 -> 0.0 over 200 epochs
Created eval split with 10000 samples
ConventionalMLP(
  (in_fc): Linear(in_features=784, out_features=784, bias=False)
  (blocks): ModuleList(
    (0-5): 6 x MLPBlockReLU(
      (norm): BatchNorm1d(784, eps=1e-05, momentum=0.1, affine=False, track_running_stats=True)
      (fc1): Linear(in_features=784, out_features=1150, bias=False)
      (act): ReLU()
      (fc2): Linear(in_features=1150, out_features=784, bias=False)
      (skip_add): SkipAdd()
    )
  )
  (out_fc): Linear(in_features=784, out_features=784, bias=False)
)
Total parameters: 12,048,512
Trainable parameters: 11,433,856
Training with W_in matrix!
Experiment directory: ./results/mnist_generative_classification/bs128_ep200_aug2/conventional_w_Win_fix_I_11433856/latent784_hidden1150_1150_1150_1150_1150_1150/lr1e-05_run3

[INFO] Training conventional MLP
[INFO] Logging mode: epoch_based
[INFO] Linear LR Decay (epoch-based): 1e-05 -> 0.0 over 200 epochs
…
Current working directory: /storage/ssd1/ArthurLee/Mediatek_research/hourglass-proj/code/hourglass
Current working directory: /storage/ssd1/ArthurLee/Mediatek_research/hourglass-proj/code/hourglass
Current working directory: /storage/ssd1/ArthurLee/Mediatek_research/hourglass-proj/code/hourglass
Current working directory: /storage/ssd1/ArthurLee/Mediatek_research/hourglass-proj/code/hourglass
Current working directory: /storage/ssd1/ArthurLee/Mediatek_research/hourglass-proj/code/hourglass
cuda:1
Initialize Win to Identity matrix
cuda:1
cuda:1
Initialize Win to Identity matrix
Set W_in to non-trianable
cuda:1
Set W_in to non-trianable
ConventionalMLP(
  (in_fc): Linear(in_features=784, out_features=784, bias=False)
  (blocks): ModuleList(
    (0-5): 6 x MLPBlockReLU(
      (norm): BatchNorm1d(784, eps=1e-05, momentum=0.1, affine=False, track_running_stats=True)
      (fc1): Linear(in_features=784, out_features=1150, bias=False)
      (act): ReLU()
      (fc2): Linear(in_features=1150, out_features=784, bias=False)
      (skip_add): SkipAdd()
    )
  )
  (out_fc): Linear(in_features=784, out_features=784, bias=False)
)
Total parameters: 12,048,512
Trainable parameters: 12,048,512
Training with W_in matrix!
Experiment directory: ./results/mnist_generative_classification/bs128_ep200_aug2/conventional_w_Win_I_12048512/latent784_hidden1150_1150_1150_1150_1150_1150/lr1e-05_run5
Created train split with 50000 samples
cuda:1
Created eval split with 10000 samples
ConventionalMLP(
  (in_fc): Linear(in_features=784, out_features=784, bias=False)
  (blocks): ModuleList(
    (0-5): 6 x MLPBlockReLU(
      (norm): BatchNorm1d(784, eps=1e-05, momentum=0.1, affine=False, track_running_stats=True)
      (fc1): Linear(in_features=784, out_features=1150, bias=False)
      (act): ReLU()
      (fc2): Linear(in_features=1150, out_features=784, bias=False)
      (skip_add): SkipAdd()
    )
  )
  (out_fc): Linear(in_features=784, out_features=784, bias=False)
)
Total parameters: 12,048,512
Trainable parameters: 12,048,512
Training with W_in matrix!
Experiment directory: ./results/mnist_generative_classification/bs128_ep200_aug2/conventional_w_Win_12048512/latent784_hidden1150_1150_1150_1150_1150_1150/lr1e-05_run5

[INFO] Training conventional MLP
[INFO] Logging mode: epoch_based
[INFO] Linear LR Decay (epoch-based): 1e-05 -> 0.0 over 200 epochs
Created train split with 50000 samples
ConventionalMLP(
  (in_fc): Linear(in_features=784, out_features=784, bias=False)
  (blocks): ModuleList(
    (0-5): 6 x MLPBlockReLU(
      (norm): BatchNorm1d(784, eps=1e-05, momentum=0.1, affine=False, track_running_stats=True)
      (fc1): Linear(in_features=784, out_features=1150, bias=False)
      (act): ReLU()
      (fc2): Linear(in_features=1150, out_features=784, bias=False)
      (skip_add): SkipAdd()
    )
  )
  (out_fc): Linear(in_features=784, out_features=784, bias=False)
)
Total parameters: 12,048,512
Trainable parameters: 11,433,856
Training with W_in matrix!
Experiment directory: ./results/mnist_generative_classification/bs128_ep200_aug2/conventional_w_Win_fix_I_11433856/latent784_hidden1150_1150_1150_1150_1150_1150/lr1e-05_run5
Created train split with 50000 samples
Created eval split with 10000 samples
ConventionalMLP(
  (in_fc): Linear(in_features=784, out_features=784, bias=False)
  (blocks): ModuleList(
    (0-5): 6 x MLPBlockReLU(
      (norm): BatchNorm1d(784, eps=1e-05, momentum=0.1, affine=False, track_running_stats=True)
      (fc1): Linear(in_features=784, out_features=1150, bias=False)
      (act): ReLU()
      (fc2): Linear(in_features=1150, out_features=784, bias=False)
      (skip_add): SkipAdd()
    )
  )
  (out_fc): Linear(in_features=784, out_features=784, bias=False)
)
Total parameters: 12,048,512
Trainable parameters: 11,433,856
Training with W_in matrix!
Experiment directory: ./results/mnist_generative_classification/bs128_ep200_aug2/conventional_w_Win_fix_11433856/latent784_hidden1150_1150_1150_1150_1150_1150/lr1e-05_run5

[INFO] Training conventional MLP
[INFO] Logging mode: epoch_based
[INFO] Linear LR Decay (epoch-based): 1e-05 -> 0.0 over 200 epochs
…
Current working directory: /storage/ssd1/ArthurLee/Mediatek_research/hourglass-proj/code/hourglass
Current working directory: /storage/ssd1/ArthurLee/Mediatek_research/hourglass-proj/code/hourglass
Current working directory: /storage/ssd1/ArthurLee/Mediatek_research/hourglass-proj/code/hourglass
Current working directory: /storage/ssd1/ArthurLee/Mediatek_research/hourglass-proj/code/hourglass
Current working directory: /storage/ssd1/ArthurLee/Mediatek_research/hourglass-proj/code/hourglass
cuda:1
Initialize Win to Identity matrix
Set W_in to non-trianable
cuda:1
cuda:1
Initialize Win to Identity matrix
cuda:1
ConventionalMLP(
  (in_fc): Linear(in_features=784, out_features=784, bias=False)
  (blocks): ModuleList(
    (0-5): 6 x MLPBlockReLU(
      (norm): BatchNorm1d(784, eps=1e-05, momentum=0.1, affine=False, track_running_stats=True)
      (fc1): Linear(in_features=784, out_features=1150, bias=False)
      (act): ReLU()
      (fc2): Linear(in_features=1150, out_features=784, bias=False)
      (skip_add): SkipAdd()
    )
  )
  (out_fc): Linear(in_features=784, out_features=784, bias=False)
)
Total parameters: 12,048,512
Trainable parameters: 11,433,856
Training with W_in matrix!
Experiment directory: ./results/mnist_generative_classification/bs128_ep200_aug2/conventional_w_Win_fix_I_11433856/latent784_hidden1150_1150_1150_1150_1150_1150/lr0.0001_run5
Created train split with 50000 samples
cuda:1
Set W_in to non-trianable
Created eval split with 10000 samples

[INFO] Training conventional MLP
[INFO] Logging mode: epoch_based
[INFO] Linear LR Decay (epoch-based): 0.0001 -> 0.0 over 200 epochs
ConventionalMLP(
  (in_fc): Linear(in_features=784, out_features=784, bias=False)
  (blocks): ModuleList(
    (0-5): 6 x MLPBlockReLU(
      (norm): BatchNorm1d(784, eps=1e-05, momentum=0.1, affine=False, track_running_stats=True)
      (fc1): Linear(in_features=784, out_features=1150, bias=False)
      (act): ReLU()
      (fc2): Linear(in_features=1150, out_features=784, bias=False)
      (skip_add): SkipAdd()
    )
  )
  (out_fc): Linear(in_features=784, out_features=784, bias=False)
)
Total parameters: 12,048,512
Trainable parameters: 12,048,512
Training with W_in matrix!
Experiment directory: ./results/mnist_generative_classification/bs128_ep200_aug2/conventional_w_Win_12048512/latent784_hidden1150_1150_1150_1150_1150_1150/lr0.0001_run5
ConventionalMLP(
  (blocks): ModuleList(
    (0-5): 6 x MLPBlockReLU(
      (norm): BatchNorm1d(784, eps=1e-05, momentum=0.1, affine=False, track_running_stats=True)
      (fc1): Linear(in_features=784, out_features=1150, bias=False)
      (act): ReLU()
      (fc2): Linear(in_features=1150, out_features=784, bias=False)
      (skip_add): SkipAdd()
    )
  )
  (out_fc): Linear(in_features=784, out_features=784, bias=False)
)
Total parameters: 11,433,856
Trainable parameters: 11,433,856
Training with no W_in matrix!
Experiment directory: ./results/mnist_generative_classification/bs128_ep200_aug2/conventional_wo_Win_11433856/latent784_hidden1150_1150_1150_1150_1150_1150/lr0.0001_run5
ConventionalMLP(
  (in_fc): Linear(in_features=784, out_features=784, bias=False)
  (blocks): ModuleList(
    (0-5): 6 x MLPBlockReLU(
      (norm): BatchNorm1d(784, eps=1e-05, momentum=0.1, affine=False, track_running_stats=True)
      (fc1): Linear(in_features=784, out_features=1150, bias=False)
      (act): ReLU()
      (fc2): Linear(in_features=1150, out_features=784, bias=False)
      (skip_add): SkipAdd()
    )
  )
  (out_fc): Linear(in_features=784, out_features=784, bias=False)
)
Total parameters: 12,048,512
Trainable parameters: 12,048,512
Training with W_in matrix!
Experiment directory: ./results/mnist_generative_classification/bs128_ep200_aug2/conventional_w_Win_I_12048512/latent784_hidden1150_1150_1150_1150_1150_1150/lr0.0001_run5
Created train split with 50000 samples
Created train split with 50000 samples
Created train split with 50000 samples
…
